{
  "nodes": [
    {
      "op": "null", 
      "name": "data", 
      "inputs": []
    }, 
    {
      "op": "SliceChannel", 
      "name": "slicechannel0", 
      "attr": {
        "axis": "2", 
        "num_outputs": "10"
      }, 
      "inputs": [[0, 0, 0]]
    }, 
    {
      "op": "null", 
      "name": "convolution0_weight", 
      "attr": {
        "kernel": "(11, 11)", 
        "num_filter": "96", 
        "stride": "(4, 4)"
      }, 
      "inputs": []
    }, 
    {
      "op": "null", 
      "name": "convolution0_bias", 
      "attr": {
        "kernel": "(11, 11)", 
        "num_filter": "96", 
        "stride": "(4, 4)"
      }, 
      "inputs": []
    }, 
    {
      "op": "Convolution", 
      "name": "convolution0", 
      "attr": {
        "kernel": "(11, 11)", 
        "num_filter": "96", 
        "stride": "(4, 4)"
      }, 
      "inputs": [[1, 0, 0], [2, 0, 0], [3, 0, 0]]
    }, 
    {
      "op": "Activation", 
      "name": "activation0", 
      "attr": {"act_type": "relu"}, 
      "inputs": [[4, 0, 0]]
    }, 
    {
      "op": "Pooling", 
      "name": "pooling0", 
      "attr": {
        "kernel": "(3, 3)", 
        "pool_type": "max", 
        "stride": "(2, 2)"
      }, 
      "inputs": [[5, 0, 0]]
    }, 
    {
      "op": "LRN", 
      "name": "lrn0", 
      "attr": {
        "alpha": "0.0001", 
        "beta": "0.75", 
        "knorm": "1", 
        "nsize": "5"
      }, 
      "inputs": [[6, 0, 0]]
    }, 
    {
      "op": "null", 
      "name": "convolution1_weight", 
      "attr": {
        "kernel": "(5, 5)", 
        "num_filter": "256", 
        "pad": "(2, 2)"
      }, 
      "inputs": []
    }, 
    {
      "op": "null", 
      "name": "convolution1_bias", 
      "attr": {
        "kernel": "(5, 5)", 
        "num_filter": "256", 
        "pad": "(2, 2)"
      }, 
      "inputs": []
    }, 
    {
      "op": "Convolution", 
      "name": "convolution1", 
      "attr": {
        "kernel": "(5, 5)", 
        "num_filter": "256", 
        "pad": "(2, 2)"
      }, 
      "inputs": [[7, 0, 0], [8, 0, 0], [9, 0, 0]]
    }, 
    {
      "op": "Activation", 
      "name": "activation1", 
      "attr": {"act_type": "relu"}, 
      "inputs": [[10, 0, 0]]
    }, 
    {
      "op": "Pooling", 
      "name": "pooling1", 
      "attr": {
        "kernel": "(3, 3)", 
        "pool_type": "max", 
        "stride": "(2, 2)"
      }, 
      "inputs": [[11, 0, 0]]
    }, 
    {
      "op": "LRN", 
      "name": "lrn1", 
      "attr": {
        "alpha": "0.0001", 
        "beta": "0.75", 
        "knorm": "1", 
        "nsize": "5"
      }, 
      "inputs": [[12, 0, 0]]
    }, 
    {
      "op": "null", 
      "name": "convolution2_weight", 
      "attr": {
        "kernel": "(3, 3)", 
        "num_filter": "384", 
        "pad": "(1, 1)"
      }, 
      "inputs": []
    }, 
    {
      "op": "null", 
      "name": "convolution2_bias", 
      "attr": {
        "kernel": "(3, 3)", 
        "num_filter": "384", 
        "pad": "(1, 1)"
      }, 
      "inputs": []
    }, 
    {
      "op": "Convolution", 
      "name": "convolution2", 
      "attr": {
        "kernel": "(3, 3)", 
        "num_filter": "384", 
        "pad": "(1, 1)"
      }, 
      "inputs": [[13, 0, 0], [14, 0, 0], [15, 0, 0]]
    }, 
    {
      "op": "Activation", 
      "name": "activation2", 
      "attr": {"act_type": "relu"}, 
      "inputs": [[16, 0, 0]]
    }, 
    {
      "op": "null", 
      "name": "convolution3_weight", 
      "attr": {
        "kernel": "(3, 3)", 
        "num_filter": "384", 
        "pad": "(1, 1)"
      }, 
      "inputs": []
    }, 
    {
      "op": "null", 
      "name": "convolution3_bias", 
      "attr": {
        "kernel": "(3, 3)", 
        "num_filter": "384", 
        "pad": "(1, 1)"
      }, 
      "inputs": []
    }, 
    {
      "op": "Convolution", 
      "name": "convolution3", 
      "attr": {
        "kernel": "(3, 3)", 
        "num_filter": "384", 
        "pad": "(1, 1)"
      }, 
      "inputs": [[17, 0, 0], [18, 0, 0], [19, 0, 0]]
    }, 
    {
      "op": "Activation", 
      "name": "activation3", 
      "attr": {"act_type": "relu"}, 
      "inputs": [[20, 0, 0]]
    }, 
    {
      "op": "null", 
      "name": "convolution4_weight", 
      "attr": {
        "kernel": "(3, 3)", 
        "num_filter": "256", 
        "pad": "(1, 1)"
      }, 
      "inputs": []
    }, 
    {
      "op": "null", 
      "name": "convolution4_bias", 
      "attr": {
        "kernel": "(3, 3)", 
        "num_filter": "256", 
        "pad": "(1, 1)"
      }, 
      "inputs": []
    }, 
    {
      "op": "Convolution", 
      "name": "convolution4", 
      "attr": {
        "kernel": "(3, 3)", 
        "num_filter": "256", 
        "pad": "(1, 1)"
      }, 
      "inputs": [[21, 0, 0], [22, 0, 0], [23, 0, 0]]
    }, 
    {
      "op": "Activation", 
      "name": "activation4", 
      "attr": {"act_type": "relu"}, 
      "inputs": [[24, 0, 0]]
    }, 
    {
      "op": "Pooling", 
      "name": "pooling2", 
      "attr": {
        "kernel": "(3, 3)", 
        "pool_type": "max", 
        "stride": "(2, 2)"
      }, 
      "inputs": [[25, 0, 0]]
    }, 
    {
      "op": "Flatten", 
      "name": "flatten0", 
      "inputs": [[26, 0, 0]]
    }, 
    {
      "op": "null", 
      "name": "fullyconnected0_weight", 
      "attr": {"num_hidden": "4096"}, 
      "inputs": []
    }, 
    {
      "op": "null", 
      "name": "fullyconnected0_bias", 
      "attr": {"num_hidden": "4096"}, 
      "inputs": []
    }, 
    {
      "op": "FullyConnected", 
      "name": "fullyconnected0", 
      "attr": {"num_hidden": "4096"}, 
      "inputs": [[27, 0, 0], [28, 0, 0], [29, 0, 0]]
    }, 
    {
      "op": "null", 
      "name": "l0_i2h_weight", 
      "inputs": []
    }, 
    {
      "op": "null", 
      "name": "l0_i2h_bias", 
      "inputs": []
    }, 
    {
      "op": "FullyConnected", 
      "name": "t0_l0_i2h", 
      "attr": {"num_hidden": "16384"}, 
      "inputs": [[30, 0, 0], [31, 0, 0], [32, 0, 0]]
    }, 
    {
      "op": "null", 
      "name": "l0_init_h", 
      "inputs": []
    }, 
    {
      "op": "null", 
      "name": "l0_h2h_weight", 
      "inputs": []
    }, 
    {
      "op": "null", 
      "name": "l0_h2h_bias", 
      "inputs": []
    }, 
    {
      "op": "FullyConnected", 
      "name": "t0_l0_h2h", 
      "attr": {"num_hidden": "16384"}, 
      "inputs": [[34, 0, 0], [35, 0, 0], [36, 0, 0]]
    }, 
    {
      "op": "elemwise_add", 
      "name": "_plus0", 
      "inputs": [[33, 0, 0], [37, 0, 0]]
    }, 
    {
      "op": "SliceChannel", 
      "name": "t0_l0_slice", 
      "attr": {"num_outputs": "4"}, 
      "inputs": [[38, 0, 0]]
    }, 
    {
      "op": "Activation", 
      "name": "activation8", 
      "attr": {"act_type": "sigmoid"}, 
      "inputs": [[39, 3, 0]]
    }, 
    {
      "op": "Activation", 
      "name": "activation7", 
      "attr": {"act_type": "sigmoid"}, 
      "inputs": [[39, 2, 0]]
    }, 
    {
      "op": "null", 
      "name": "l0_init_c", 
      "inputs": []
    }, 
    {
      "op": "_mul", 
      "name": "_mul0", 
      "inputs": [[41, 0, 0], [42, 0, 0]]
    }, 
    {
      "op": "Activation", 
      "name": "activation5", 
      "attr": {"act_type": "sigmoid"}, 
      "inputs": [[39, 0, 0]]
    }, 
    {
      "op": "Activation", 
      "name": "activation6", 
      "attr": {"act_type": "tanh"}, 
      "inputs": [[39, 1, 0]]
    }, 
    {
      "op": "_mul", 
      "name": "_mul1", 
      "inputs": [[44, 0, 0], [45, 0, 0]]
    }, 
    {
      "op": "elemwise_add", 
      "name": "_plus1", 
      "inputs": [[43, 0, 0], [46, 0, 0]]
    }, 
    {
      "op": "Activation", 
      "name": "activation9", 
      "attr": {"act_type": "tanh"}, 
      "inputs": [[47, 0, 0]]
    }, 
    {
      "op": "_mul", 
      "name": "_mul2", 
      "inputs": [[40, 0, 0], [48, 0, 0]]
    }, 
    {
      "op": "null", 
      "name": "l1_i2h_weight", 
      "inputs": []
    }, 
    {
      "op": "null", 
      "name": "l1_i2h_bias", 
      "inputs": []
    }, 
    {
      "op": "FullyConnected", 
      "name": "t0_l1_i2h", 
      "attr": {"num_hidden": "16384"}, 
      "inputs": [[49, 0, 0], [50, 0, 0], [51, 0, 0]]
    }, 
    {
      "op": "null", 
      "name": "l1_init_h", 
      "inputs": []
    }, 
    {
      "op": "null", 
      "name": "l1_h2h_weight", 
      "inputs": []
    }, 
    {
      "op": "null", 
      "name": "l1_h2h_bias", 
      "inputs": []
    }, 
    {
      "op": "FullyConnected", 
      "name": "t0_l1_h2h", 
      "attr": {"num_hidden": "16384"}, 
      "inputs": [[53, 0, 0], [54, 0, 0], [55, 0, 0]]
    }, 
    {
      "op": "elemwise_add", 
      "name": "_plus2", 
      "inputs": [[52, 0, 0], [56, 0, 0]]
    }, 
    {
      "op": "SliceChannel", 
      "name": "t0_l1_slice", 
      "attr": {"num_outputs": "4"}, 
      "inputs": [[57, 0, 0]]
    }, 
    {
      "op": "Activation", 
      "name": "activation13", 
      "attr": {"act_type": "sigmoid"}, 
      "inputs": [[58, 3, 0]]
    }, 
    {
      "op": "Activation", 
      "name": "activation12", 
      "attr": {"act_type": "sigmoid"}, 
      "inputs": [[58, 2, 0]]
    }, 
    {
      "op": "null", 
      "name": "l1_init_c", 
      "inputs": []
    }, 
    {
      "op": "_mul", 
      "name": "_mul3", 
      "inputs": [[60, 0, 0], [61, 0, 0]]
    }, 
    {
      "op": "Activation", 
      "name": "activation10", 
      "attr": {"act_type": "sigmoid"}, 
      "inputs": [[58, 0, 0]]
    }, 
    {
      "op": "Activation", 
      "name": "activation11", 
      "attr": {"act_type": "tanh"}, 
      "inputs": [[58, 1, 0]]
    }, 
    {
      "op": "_mul", 
      "name": "_mul4", 
      "inputs": [[63, 0, 0], [64, 0, 0]]
    }, 
    {
      "op": "elemwise_add", 
      "name": "_plus3", 
      "inputs": [[62, 0, 0], [65, 0, 0]]
    }, 
    {
      "op": "Activation", 
      "name": "activation14", 
      "attr": {"act_type": "tanh"}, 
      "inputs": [[66, 0, 0]]
    }, 
    {
      "op": "_mul", 
      "name": "_mul5", 
      "inputs": [[59, 0, 0], [67, 0, 0]]
    }, 
    {
      "op": "null", 
      "name": "convolution5_weight", 
      "attr": {
        "kernel": "(11, 11)", 
        "num_filter": "96", 
        "stride": "(4, 4)"
      }, 
      "inputs": []
    }, 
    {
      "op": "null", 
      "name": "convolution5_bias", 
      "attr": {
        "kernel": "(11, 11)", 
        "num_filter": "96", 
        "stride": "(4, 4)"
      }, 
      "inputs": []
    }, 
    {
      "op": "Convolution", 
      "name": "convolution5", 
      "attr": {
        "kernel": "(11, 11)", 
        "num_filter": "96", 
        "stride": "(4, 4)"
      }, 
      "inputs": [[1, 1, 0], [69, 0, 0], [70, 0, 0]]
    }, 
    {
      "op": "Activation", 
      "name": "activation15", 
      "attr": {"act_type": "relu"}, 
      "inputs": [[71, 0, 0]]
    }, 
    {
      "op": "Pooling", 
      "name": "pooling3", 
      "attr": {
        "kernel": "(3, 3)", 
        "pool_type": "max", 
        "stride": "(2, 2)"
      }, 
      "inputs": [[72, 0, 0]]
    }, 
    {
      "op": "LRN", 
      "name": "lrn2", 
      "attr": {
        "alpha": "0.0001", 
        "beta": "0.75", 
        "knorm": "1", 
        "nsize": "5"
      }, 
      "inputs": [[73, 0, 0]]
    }, 
    {
      "op": "null", 
      "name": "convolution6_weight", 
      "attr": {
        "kernel": "(5, 5)", 
        "num_filter": "256", 
        "pad": "(2, 2)"
      }, 
      "inputs": []
    }, 
    {
      "op": "null", 
      "name": "convolution6_bias", 
      "attr": {
        "kernel": "(5, 5)", 
        "num_filter": "256", 
        "pad": "(2, 2)"
      }, 
      "inputs": []
    }, 
    {
      "op": "Convolution", 
      "name": "convolution6", 
      "attr": {
        "kernel": "(5, 5)", 
        "num_filter": "256", 
        "pad": "(2, 2)"
      }, 
      "inputs": [[74, 0, 0], [75, 0, 0], [76, 0, 0]]
    }, 
    {
      "op": "Activation", 
      "name": "activation16", 
      "attr": {"act_type": "relu"}, 
      "inputs": [[77, 0, 0]]
    }, 
    {
      "op": "Pooling", 
      "name": "pooling4", 
      "attr": {
        "kernel": "(3, 3)", 
        "pool_type": "max", 
        "stride": "(2, 2)"
      }, 
      "inputs": [[78, 0, 0]]
    }, 
    {
      "op": "LRN", 
      "name": "lrn3", 
      "attr": {
        "alpha": "0.0001", 
        "beta": "0.75", 
        "knorm": "1", 
        "nsize": "5"
      }, 
      "inputs": [[79, 0, 0]]
    }, 
    {
      "op": "null", 
      "name": "convolution7_weight", 
      "attr": {
        "kernel": "(3, 3)", 
        "num_filter": "384", 
        "pad": "(1, 1)"
      }, 
      "inputs": []
    }, 
    {
      "op": "null", 
      "name": "convolution7_bias", 
      "attr": {
        "kernel": "(3, 3)", 
        "num_filter": "384", 
        "pad": "(1, 1)"
      }, 
      "inputs": []
    }, 
    {
      "op": "Convolution", 
      "name": "convolution7", 
      "attr": {
        "kernel": "(3, 3)", 
        "num_filter": "384", 
        "pad": "(1, 1)"
      }, 
      "inputs": [[80, 0, 0], [81, 0, 0], [82, 0, 0]]
    }, 
    {
      "op": "Activation", 
      "name": "activation17", 
      "attr": {"act_type": "relu"}, 
      "inputs": [[83, 0, 0]]
    }, 
    {
      "op": "null", 
      "name": "convolution8_weight", 
      "attr": {
        "kernel": "(3, 3)", 
        "num_filter": "384", 
        "pad": "(1, 1)"
      }, 
      "inputs": []
    }, 
    {
      "op": "null", 
      "name": "convolution8_bias", 
      "attr": {
        "kernel": "(3, 3)", 
        "num_filter": "384", 
        "pad": "(1, 1)"
      }, 
      "inputs": []
    }, 
    {
      "op": "Convolution", 
      "name": "convolution8", 
      "attr": {
        "kernel": "(3, 3)", 
        "num_filter": "384", 
        "pad": "(1, 1)"
      }, 
      "inputs": [[84, 0, 0], [85, 0, 0], [86, 0, 0]]
    }, 
    {
      "op": "Activation", 
      "name": "activation18", 
      "attr": {"act_type": "relu"}, 
      "inputs": [[87, 0, 0]]
    }, 
    {
      "op": "null", 
      "name": "convolution9_weight", 
      "attr": {
        "kernel": "(3, 3)", 
        "num_filter": "256", 
        "pad": "(1, 1)"
      }, 
      "inputs": []
    }, 
    {
      "op": "null", 
      "name": "convolution9_bias", 
      "attr": {
        "kernel": "(3, 3)", 
        "num_filter": "256", 
        "pad": "(1, 1)"
      }, 
      "inputs": []
    }, 
    {
      "op": "Convolution", 
      "name": "convolution9", 
      "attr": {
        "kernel": "(3, 3)", 
        "num_filter": "256", 
        "pad": "(1, 1)"
      }, 
      "inputs": [[88, 0, 0], [89, 0, 0], [90, 0, 0]]
    }, 
    {
      "op": "Activation", 
      "name": "activation19", 
      "attr": {"act_type": "relu"}, 
      "inputs": [[91, 0, 0]]
    }, 
    {
      "op": "Pooling", 
      "name": "pooling5", 
      "attr": {
        "kernel": "(3, 3)", 
        "pool_type": "max", 
        "stride": "(2, 2)"
      }, 
      "inputs": [[92, 0, 0]]
    }, 
    {
      "op": "Flatten", 
      "name": "flatten1", 
      "inputs": [[93, 0, 0]]
    }, 
    {
      "op": "null", 
      "name": "fullyconnected1_weight", 
      "attr": {"num_hidden": "4096"}, 
      "inputs": []
    }, 
    {
      "op": "null", 
      "name": "fullyconnected1_bias", 
      "attr": {"num_hidden": "4096"}, 
      "inputs": []
    }, 
    {
      "op": "FullyConnected", 
      "name": "fullyconnected1", 
      "attr": {"num_hidden": "4096"}, 
      "inputs": [[94, 0, 0], [95, 0, 0], [96, 0, 0]]
    }, 
    {
      "op": "FullyConnected", 
      "name": "t1_l0_i2h", 
      "attr": {"num_hidden": "16384"}, 
      "inputs": [[97, 0, 0], [31, 0, 0], [32, 0, 0]]
    }, 
    {
      "op": "FullyConnected", 
      "name": "t1_l0_h2h", 
      "attr": {"num_hidden": "16384"}, 
      "inputs": [[49, 0, 0], [35, 0, 0], [36, 0, 0]]
    }, 
    {
      "op": "elemwise_add", 
      "name": "_plus4", 
      "inputs": [[98, 0, 0], [99, 0, 0]]
    }, 
    {
      "op": "SliceChannel", 
      "name": "t1_l0_slice", 
      "attr": {"num_outputs": "4"}, 
      "inputs": [[100, 0, 0]]
    }, 
    {
      "op": "Activation", 
      "name": "activation23", 
      "attr": {"act_type": "sigmoid"}, 
      "inputs": [[101, 3, 0]]
    }, 
    {
      "op": "Activation", 
      "name": "activation22", 
      "attr": {"act_type": "sigmoid"}, 
      "inputs": [[101, 2, 0]]
    }, 
    {
      "op": "_mul", 
      "name": "_mul6", 
      "inputs": [[103, 0, 0], [47, 0, 0]]
    }, 
    {
      "op": "Activation", 
      "name": "activation20", 
      "attr": {"act_type": "sigmoid"}, 
      "inputs": [[101, 0, 0]]
    }, 
    {
      "op": "Activation", 
      "name": "activation21", 
      "attr": {"act_type": "tanh"}, 
      "inputs": [[101, 1, 0]]
    }, 
    {
      "op": "_mul", 
      "name": "_mul7", 
      "inputs": [[105, 0, 0], [106, 0, 0]]
    }, 
    {
      "op": "elemwise_add", 
      "name": "_plus5", 
      "inputs": [[104, 0, 0], [107, 0, 0]]
    }, 
    {
      "op": "Activation", 
      "name": "activation24", 
      "attr": {"act_type": "tanh"}, 
      "inputs": [[108, 0, 0]]
    }, 
    {
      "op": "_mul", 
      "name": "_mul8", 
      "inputs": [[102, 0, 0], [109, 0, 0]]
    }, 
    {
      "op": "FullyConnected", 
      "name": "t1_l1_i2h", 
      "attr": {"num_hidden": "16384"}, 
      "inputs": [[110, 0, 0], [50, 0, 0], [51, 0, 0]]
    }, 
    {
      "op": "FullyConnected", 
      "name": "t1_l1_h2h", 
      "attr": {"num_hidden": "16384"}, 
      "inputs": [[68, 0, 0], [54, 0, 0], [55, 0, 0]]
    }, 
    {
      "op": "elemwise_add", 
      "name": "_plus6", 
      "inputs": [[111, 0, 0], [112, 0, 0]]
    }, 
    {
      "op": "SliceChannel", 
      "name": "t1_l1_slice", 
      "attr": {"num_outputs": "4"}, 
      "inputs": [[113, 0, 0]]
    }, 
    {
      "op": "Activation", 
      "name": "activation28", 
      "attr": {"act_type": "sigmoid"}, 
      "inputs": [[114, 3, 0]]
    }, 
    {
      "op": "Activation", 
      "name": "activation27", 
      "attr": {"act_type": "sigmoid"}, 
      "inputs": [[114, 2, 0]]
    }, 
    {
      "op": "_mul", 
      "name": "_mul9", 
      "inputs": [[116, 0, 0], [66, 0, 0]]
    }, 
    {
      "op": "Activation", 
      "name": "activation25", 
      "attr": {"act_type": "sigmoid"}, 
      "inputs": [[114, 0, 0]]
    }, 
    {
      "op": "Activation", 
      "name": "activation26", 
      "attr": {"act_type": "tanh"}, 
      "inputs": [[114, 1, 0]]
    }, 
    {
      "op": "_mul", 
      "name": "_mul10", 
      "inputs": [[118, 0, 0], [119, 0, 0]]
    }, 
    {
      "op": "elemwise_add", 
      "name": "_plus7", 
      "inputs": [[117, 0, 0], [120, 0, 0]]
    }, 
    {
      "op": "Activation", 
      "name": "activation29", 
      "attr": {"act_type": "tanh"}, 
      "inputs": [[121, 0, 0]]
    }, 
    {
      "op": "_mul", 
      "name": "_mul11", 
      "inputs": [[115, 0, 0], [122, 0, 0]]
    }, 
    {
      "op": "null", 
      "name": "convolution10_weight", 
      "attr": {
        "kernel": "(11, 11)", 
        "num_filter": "96", 
        "stride": "(4, 4)"
      }, 
      "inputs": []
    }, 
    {
      "op": "null", 
      "name": "convolution10_bias", 
      "attr": {
        "kernel": "(11, 11)", 
        "num_filter": "96", 
        "stride": "(4, 4)"
      }, 
      "inputs": []
    }, 
    {
      "op": "Convolution", 
      "name": "convolution10", 
      "attr": {
        "kernel": "(11, 11)", 
        "num_filter": "96", 
        "stride": "(4, 4)"
      }, 
      "inputs": [[1, 2, 0], [124, 0, 0], [125, 0, 0]]
    }, 
    {
      "op": "Activation", 
      "name": "activation30", 
      "attr": {"act_type": "relu"}, 
      "inputs": [[126, 0, 0]]
    }, 
    {
      "op": "Pooling", 
      "name": "pooling6", 
      "attr": {
        "kernel": "(3, 3)", 
        "pool_type": "max", 
        "stride": "(2, 2)"
      }, 
      "inputs": [[127, 0, 0]]
    }, 
    {
      "op": "LRN", 
      "name": "lrn4", 
      "attr": {
        "alpha": "0.0001", 
        "beta": "0.75", 
        "knorm": "1", 
        "nsize": "5"
      }, 
      "inputs": [[128, 0, 0]]
    }, 
    {
      "op": "null", 
      "name": "convolution11_weight", 
      "attr": {
        "kernel": "(5, 5)", 
        "num_filter": "256", 
        "pad": "(2, 2)"
      }, 
      "inputs": []
    }, 
    {
      "op": "null", 
      "name": "convolution11_bias", 
      "attr": {
        "kernel": "(5, 5)", 
        "num_filter": "256", 
        "pad": "(2, 2)"
      }, 
      "inputs": []
    }, 
    {
      "op": "Convolution", 
      "name": "convolution11", 
      "attr": {
        "kernel": "(5, 5)", 
        "num_filter": "256", 
        "pad": "(2, 2)"
      }, 
      "inputs": [[129, 0, 0], [130, 0, 0], [131, 0, 0]]
    }, 
    {
      "op": "Activation", 
      "name": "activation31", 
      "attr": {"act_type": "relu"}, 
      "inputs": [[132, 0, 0]]
    }, 
    {
      "op": "Pooling", 
      "name": "pooling7", 
      "attr": {
        "kernel": "(3, 3)", 
        "pool_type": "max", 
        "stride": "(2, 2)"
      }, 
      "inputs": [[133, 0, 0]]
    }, 
    {
      "op": "LRN", 
      "name": "lrn5", 
      "attr": {
        "alpha": "0.0001", 
        "beta": "0.75", 
        "knorm": "1", 
        "nsize": "5"
      }, 
      "inputs": [[134, 0, 0]]
    }, 
    {
      "op": "null", 
      "name": "convolution12_weight", 
      "attr": {
        "kernel": "(3, 3)", 
        "num_filter": "384", 
        "pad": "(1, 1)"
      }, 
      "inputs": []
    }, 
    {
      "op": "null", 
      "name": "convolution12_bias", 
      "attr": {
        "kernel": "(3, 3)", 
        "num_filter": "384", 
        "pad": "(1, 1)"
      }, 
      "inputs": []
    }, 
    {
      "op": "Convolution", 
      "name": "convolution12", 
      "attr": {
        "kernel": "(3, 3)", 
        "num_filter": "384", 
        "pad": "(1, 1)"
      }, 
      "inputs": [[135, 0, 0], [136, 0, 0], [137, 0, 0]]
    }, 
    {
      "op": "Activation", 
      "name": "activation32", 
      "attr": {"act_type": "relu"}, 
      "inputs": [[138, 0, 0]]
    }, 
    {
      "op": "null", 
      "name": "convolution13_weight", 
      "attr": {
        "kernel": "(3, 3)", 
        "num_filter": "384", 
        "pad": "(1, 1)"
      }, 
      "inputs": []
    }, 
    {
      "op": "null", 
      "name": "convolution13_bias", 
      "attr": {
        "kernel": "(3, 3)", 
        "num_filter": "384", 
        "pad": "(1, 1)"
      }, 
      "inputs": []
    }, 
    {
      "op": "Convolution", 
      "name": "convolution13", 
      "attr": {
        "kernel": "(3, 3)", 
        "num_filter": "384", 
        "pad": "(1, 1)"
      }, 
      "inputs": [[139, 0, 0], [140, 0, 0], [141, 0, 0]]
    }, 
    {
      "op": "Activation", 
      "name": "activation33", 
      "attr": {"act_type": "relu"}, 
      "inputs": [[142, 0, 0]]
    }, 
    {
      "op": "null", 
      "name": "convolution14_weight", 
      "attr": {
        "kernel": "(3, 3)", 
        "num_filter": "256", 
        "pad": "(1, 1)"
      }, 
      "inputs": []
    }, 
    {
      "op": "null", 
      "name": "convolution14_bias", 
      "attr": {
        "kernel": "(3, 3)", 
        "num_filter": "256", 
        "pad": "(1, 1)"
      }, 
      "inputs": []
    }, 
    {
      "op": "Convolution", 
      "name": "convolution14", 
      "attr": {
        "kernel": "(3, 3)", 
        "num_filter": "256", 
        "pad": "(1, 1)"
      }, 
      "inputs": [[143, 0, 0], [144, 0, 0], [145, 0, 0]]
    }, 
    {
      "op": "Activation", 
      "name": "activation34", 
      "attr": {"act_type": "relu"}, 
      "inputs": [[146, 0, 0]]
    }, 
    {
      "op": "Pooling", 
      "name": "pooling8", 
      "attr": {
        "kernel": "(3, 3)", 
        "pool_type": "max", 
        "stride": "(2, 2)"
      }, 
      "inputs": [[147, 0, 0]]
    }, 
    {
      "op": "Flatten", 
      "name": "flatten2", 
      "inputs": [[148, 0, 0]]
    }, 
    {
      "op": "null", 
      "name": "fullyconnected2_weight", 
      "attr": {"num_hidden": "4096"}, 
      "inputs": []
    }, 
    {
      "op": "null", 
      "name": "fullyconnected2_bias", 
      "attr": {"num_hidden": "4096"}, 
      "inputs": []
    }, 
    {
      "op": "FullyConnected", 
      "name": "fullyconnected2", 
      "attr": {"num_hidden": "4096"}, 
      "inputs": [[149, 0, 0], [150, 0, 0], [151, 0, 0]]
    }, 
    {
      "op": "FullyConnected", 
      "name": "t2_l0_i2h", 
      "attr": {"num_hidden": "16384"}, 
      "inputs": [[152, 0, 0], [31, 0, 0], [32, 0, 0]]
    }, 
    {
      "op": "FullyConnected", 
      "name": "t2_l0_h2h", 
      "attr": {"num_hidden": "16384"}, 
      "inputs": [[110, 0, 0], [35, 0, 0], [36, 0, 0]]
    }, 
    {
      "op": "elemwise_add", 
      "name": "_plus8", 
      "inputs": [[153, 0, 0], [154, 0, 0]]
    }, 
    {
      "op": "SliceChannel", 
      "name": "t2_l0_slice", 
      "attr": {"num_outputs": "4"}, 
      "inputs": [[155, 0, 0]]
    }, 
    {
      "op": "Activation", 
      "name": "activation38", 
      "attr": {"act_type": "sigmoid"}, 
      "inputs": [[156, 3, 0]]
    }, 
    {
      "op": "Activation", 
      "name": "activation37", 
      "attr": {"act_type": "sigmoid"}, 
      "inputs": [[156, 2, 0]]
    }, 
    {
      "op": "_mul", 
      "name": "_mul12", 
      "inputs": [[158, 0, 0], [108, 0, 0]]
    }, 
    {
      "op": "Activation", 
      "name": "activation35", 
      "attr": {"act_type": "sigmoid"}, 
      "inputs": [[156, 0, 0]]
    }, 
    {
      "op": "Activation", 
      "name": "activation36", 
      "attr": {"act_type": "tanh"}, 
      "inputs": [[156, 1, 0]]
    }, 
    {
      "op": "_mul", 
      "name": "_mul13", 
      "inputs": [[160, 0, 0], [161, 0, 0]]
    }, 
    {
      "op": "elemwise_add", 
      "name": "_plus9", 
      "inputs": [[159, 0, 0], [162, 0, 0]]
    }, 
    {
      "op": "Activation", 
      "name": "activation39", 
      "attr": {"act_type": "tanh"}, 
      "inputs": [[163, 0, 0]]
    }, 
    {
      "op": "_mul", 
      "name": "_mul14", 
      "inputs": [[157, 0, 0], [164, 0, 0]]
    }, 
    {
      "op": "FullyConnected", 
      "name": "t2_l1_i2h", 
      "attr": {"num_hidden": "16384"}, 
      "inputs": [[165, 0, 0], [50, 0, 0], [51, 0, 0]]
    }, 
    {
      "op": "FullyConnected", 
      "name": "t2_l1_h2h", 
      "attr": {"num_hidden": "16384"}, 
      "inputs": [[123, 0, 0], [54, 0, 0], [55, 0, 0]]
    }, 
    {
      "op": "elemwise_add", 
      "name": "_plus10", 
      "inputs": [[166, 0, 0], [167, 0, 0]]
    }, 
    {
      "op": "SliceChannel", 
      "name": "t2_l1_slice", 
      "attr": {"num_outputs": "4"}, 
      "inputs": [[168, 0, 0]]
    }, 
    {
      "op": "Activation", 
      "name": "activation43", 
      "attr": {"act_type": "sigmoid"}, 
      "inputs": [[169, 3, 0]]
    }, 
    {
      "op": "Activation", 
      "name": "activation42", 
      "attr": {"act_type": "sigmoid"}, 
      "inputs": [[169, 2, 0]]
    }, 
    {
      "op": "_mul", 
      "name": "_mul15", 
      "inputs": [[171, 0, 0], [121, 0, 0]]
    }, 
    {
      "op": "Activation", 
      "name": "activation40", 
      "attr": {"act_type": "sigmoid"}, 
      "inputs": [[169, 0, 0]]
    }, 
    {
      "op": "Activation", 
      "name": "activation41", 
      "attr": {"act_type": "tanh"}, 
      "inputs": [[169, 1, 0]]
    }, 
    {
      "op": "_mul", 
      "name": "_mul16", 
      "inputs": [[173, 0, 0], [174, 0, 0]]
    }, 
    {
      "op": "elemwise_add", 
      "name": "_plus11", 
      "inputs": [[172, 0, 0], [175, 0, 0]]
    }, 
    {
      "op": "Activation", 
      "name": "activation44", 
      "attr": {"act_type": "tanh"}, 
      "inputs": [[176, 0, 0]]
    }, 
    {
      "op": "_mul", 
      "name": "_mul17", 
      "inputs": [[170, 0, 0], [177, 0, 0]]
    }, 
    {
      "op": "null", 
      "name": "convolution15_weight", 
      "attr": {
        "kernel": "(11, 11)", 
        "num_filter": "96", 
        "stride": "(4, 4)"
      }, 
      "inputs": []
    }, 
    {
      "op": "null", 
      "name": "convolution15_bias", 
      "attr": {
        "kernel": "(11, 11)", 
        "num_filter": "96", 
        "stride": "(4, 4)"
      }, 
      "inputs": []
    }, 
    {
      "op": "Convolution", 
      "name": "convolution15", 
      "attr": {
        "kernel": "(11, 11)", 
        "num_filter": "96", 
        "stride": "(4, 4)"
      }, 
      "inputs": [[1, 3, 0], [179, 0, 0], [180, 0, 0]]
    }, 
    {
      "op": "Activation", 
      "name": "activation45", 
      "attr": {"act_type": "relu"}, 
      "inputs": [[181, 0, 0]]
    }, 
    {
      "op": "Pooling", 
      "name": "pooling9", 
      "attr": {
        "kernel": "(3, 3)", 
        "pool_type": "max", 
        "stride": "(2, 2)"
      }, 
      "inputs": [[182, 0, 0]]
    }, 
    {
      "op": "LRN", 
      "name": "lrn6", 
      "attr": {
        "alpha": "0.0001", 
        "beta": "0.75", 
        "knorm": "1", 
        "nsize": "5"
      }, 
      "inputs": [[183, 0, 0]]
    }, 
    {
      "op": "null", 
      "name": "convolution16_weight", 
      "attr": {
        "kernel": "(5, 5)", 
        "num_filter": "256", 
        "pad": "(2, 2)"
      }, 
      "inputs": []
    }, 
    {
      "op": "null", 
      "name": "convolution16_bias", 
      "attr": {
        "kernel": "(5, 5)", 
        "num_filter": "256", 
        "pad": "(2, 2)"
      }, 
      "inputs": []
    }, 
    {
      "op": "Convolution", 
      "name": "convolution16", 
      "attr": {
        "kernel": "(5, 5)", 
        "num_filter": "256", 
        "pad": "(2, 2)"
      }, 
      "inputs": [[184, 0, 0], [185, 0, 0], [186, 0, 0]]
    }, 
    {
      "op": "Activation", 
      "name": "activation46", 
      "attr": {"act_type": "relu"}, 
      "inputs": [[187, 0, 0]]
    }, 
    {
      "op": "Pooling", 
      "name": "pooling10", 
      "attr": {
        "kernel": "(3, 3)", 
        "pool_type": "max", 
        "stride": "(2, 2)"
      }, 
      "inputs": [[188, 0, 0]]
    }, 
    {
      "op": "LRN", 
      "name": "lrn7", 
      "attr": {
        "alpha": "0.0001", 
        "beta": "0.75", 
        "knorm": "1", 
        "nsize": "5"
      }, 
      "inputs": [[189, 0, 0]]
    }, 
    {
      "op": "null", 
      "name": "convolution17_weight", 
      "attr": {
        "kernel": "(3, 3)", 
        "num_filter": "384", 
        "pad": "(1, 1)"
      }, 
      "inputs": []
    }, 
    {
      "op": "null", 
      "name": "convolution17_bias", 
      "attr": {
        "kernel": "(3, 3)", 
        "num_filter": "384", 
        "pad": "(1, 1)"
      }, 
      "inputs": []
    }, 
    {
      "op": "Convolution", 
      "name": "convolution17", 
      "attr": {
        "kernel": "(3, 3)", 
        "num_filter": "384", 
        "pad": "(1, 1)"
      }, 
      "inputs": [[190, 0, 0], [191, 0, 0], [192, 0, 0]]
    }, 
    {
      "op": "Activation", 
      "name": "activation47", 
      "attr": {"act_type": "relu"}, 
      "inputs": [[193, 0, 0]]
    }, 
    {
      "op": "null", 
      "name": "convolution18_weight", 
      "attr": {
        "kernel": "(3, 3)", 
        "num_filter": "384", 
        "pad": "(1, 1)"
      }, 
      "inputs": []
    }, 
    {
      "op": "null", 
      "name": "convolution18_bias", 
      "attr": {
        "kernel": "(3, 3)", 
        "num_filter": "384", 
        "pad": "(1, 1)"
      }, 
      "inputs": []
    }, 
    {
      "op": "Convolution", 
      "name": "convolution18", 
      "attr": {
        "kernel": "(3, 3)", 
        "num_filter": "384", 
        "pad": "(1, 1)"
      }, 
      "inputs": [[194, 0, 0], [195, 0, 0], [196, 0, 0]]
    }, 
    {
      "op": "Activation", 
      "name": "activation48", 
      "attr": {"act_type": "relu"}, 
      "inputs": [[197, 0, 0]]
    }, 
    {
      "op": "null", 
      "name": "convolution19_weight", 
      "attr": {
        "kernel": "(3, 3)", 
        "num_filter": "256", 
        "pad": "(1, 1)"
      }, 
      "inputs": []
    }, 
    {
      "op": "null", 
      "name": "convolution19_bias", 
      "attr": {
        "kernel": "(3, 3)", 
        "num_filter": "256", 
        "pad": "(1, 1)"
      }, 
      "inputs": []
    }, 
    {
      "op": "Convolution", 
      "name": "convolution19", 
      "attr": {
        "kernel": "(3, 3)", 
        "num_filter": "256", 
        "pad": "(1, 1)"
      }, 
      "inputs": [[198, 0, 0], [199, 0, 0], [200, 0, 0]]
    }, 
    {
      "op": "Activation", 
      "name": "activation49", 
      "attr": {"act_type": "relu"}, 
      "inputs": [[201, 0, 0]]
    }, 
    {
      "op": "Pooling", 
      "name": "pooling11", 
      "attr": {
        "kernel": "(3, 3)", 
        "pool_type": "max", 
        "stride": "(2, 2)"
      }, 
      "inputs": [[202, 0, 0]]
    }, 
    {
      "op": "Flatten", 
      "name": "flatten3", 
      "inputs": [[203, 0, 0]]
    }, 
    {
      "op": "null", 
      "name": "fullyconnected3_weight", 
      "attr": {"num_hidden": "4096"}, 
      "inputs": []
    }, 
    {
      "op": "null", 
      "name": "fullyconnected3_bias", 
      "attr": {"num_hidden": "4096"}, 
      "inputs": []
    }, 
    {
      "op": "FullyConnected", 
      "name": "fullyconnected3", 
      "attr": {"num_hidden": "4096"}, 
      "inputs": [[204, 0, 0], [205, 0, 0], [206, 0, 0]]
    }, 
    {
      "op": "FullyConnected", 
      "name": "t3_l0_i2h", 
      "attr": {"num_hidden": "16384"}, 
      "inputs": [[207, 0, 0], [31, 0, 0], [32, 0, 0]]
    }, 
    {
      "op": "FullyConnected", 
      "name": "t3_l0_h2h", 
      "attr": {"num_hidden": "16384"}, 
      "inputs": [[165, 0, 0], [35, 0, 0], [36, 0, 0]]
    }, 
    {
      "op": "elemwise_add", 
      "name": "_plus12", 
      "inputs": [[208, 0, 0], [209, 0, 0]]
    }, 
    {
      "op": "SliceChannel", 
      "name": "t3_l0_slice", 
      "attr": {"num_outputs": "4"}, 
      "inputs": [[210, 0, 0]]
    }, 
    {
      "op": "Activation", 
      "name": "activation53", 
      "attr": {"act_type": "sigmoid"}, 
      "inputs": [[211, 3, 0]]
    }, 
    {
      "op": "Activation", 
      "name": "activation52", 
      "attr": {"act_type": "sigmoid"}, 
      "inputs": [[211, 2, 0]]
    }, 
    {
      "op": "_mul", 
      "name": "_mul18", 
      "inputs": [[213, 0, 0], [163, 0, 0]]
    }, 
    {
      "op": "Activation", 
      "name": "activation50", 
      "attr": {"act_type": "sigmoid"}, 
      "inputs": [[211, 0, 0]]
    }, 
    {
      "op": "Activation", 
      "name": "activation51", 
      "attr": {"act_type": "tanh"}, 
      "inputs": [[211, 1, 0]]
    }, 
    {
      "op": "_mul", 
      "name": "_mul19", 
      "inputs": [[215, 0, 0], [216, 0, 0]]
    }, 
    {
      "op": "elemwise_add", 
      "name": "_plus13", 
      "inputs": [[214, 0, 0], [217, 0, 0]]
    }, 
    {
      "op": "Activation", 
      "name": "activation54", 
      "attr": {"act_type": "tanh"}, 
      "inputs": [[218, 0, 0]]
    }, 
    {
      "op": "_mul", 
      "name": "_mul20", 
      "inputs": [[212, 0, 0], [219, 0, 0]]
    }, 
    {
      "op": "FullyConnected", 
      "name": "t3_l1_i2h", 
      "attr": {"num_hidden": "16384"}, 
      "inputs": [[220, 0, 0], [50, 0, 0], [51, 0, 0]]
    }, 
    {
      "op": "FullyConnected", 
      "name": "t3_l1_h2h", 
      "attr": {"num_hidden": "16384"}, 
      "inputs": [[178, 0, 0], [54, 0, 0], [55, 0, 0]]
    }, 
    {
      "op": "elemwise_add", 
      "name": "_plus14", 
      "inputs": [[221, 0, 0], [222, 0, 0]]
    }, 
    {
      "op": "SliceChannel", 
      "name": "t3_l1_slice", 
      "attr": {"num_outputs": "4"}, 
      "inputs": [[223, 0, 0]]
    }, 
    {
      "op": "Activation", 
      "name": "activation58", 
      "attr": {"act_type": "sigmoid"}, 
      "inputs": [[224, 3, 0]]
    }, 
    {
      "op": "Activation", 
      "name": "activation57", 
      "attr": {"act_type": "sigmoid"}, 
      "inputs": [[224, 2, 0]]
    }, 
    {
      "op": "_mul", 
      "name": "_mul21", 
      "inputs": [[226, 0, 0], [176, 0, 0]]
    }, 
    {
      "op": "Activation", 
      "name": "activation55", 
      "attr": {"act_type": "sigmoid"}, 
      "inputs": [[224, 0, 0]]
    }, 
    {
      "op": "Activation", 
      "name": "activation56", 
      "attr": {"act_type": "tanh"}, 
      "inputs": [[224, 1, 0]]
    }, 
    {
      "op": "_mul", 
      "name": "_mul22", 
      "inputs": [[228, 0, 0], [229, 0, 0]]
    }, 
    {
      "op": "elemwise_add", 
      "name": "_plus15", 
      "inputs": [[227, 0, 0], [230, 0, 0]]
    }, 
    {
      "op": "Activation", 
      "name": "activation59", 
      "attr": {"act_type": "tanh"}, 
      "inputs": [[231, 0, 0]]
    }, 
    {
      "op": "_mul", 
      "name": "_mul23", 
      "inputs": [[225, 0, 0], [232, 0, 0]]
    }, 
    {
      "op": "null", 
      "name": "convolution20_weight", 
      "attr": {
        "kernel": "(11, 11)", 
        "num_filter": "96", 
        "stride": "(4, 4)"
      }, 
      "inputs": []
    }, 
    {
      "op": "null", 
      "name": "convolution20_bias", 
      "attr": {
        "kernel": "(11, 11)", 
        "num_filter": "96", 
        "stride": "(4, 4)"
      }, 
      "inputs": []
    }, 
    {
      "op": "Convolution", 
      "name": "convolution20", 
      "attr": {
        "kernel": "(11, 11)", 
        "num_filter": "96", 
        "stride": "(4, 4)"
      }, 
      "inputs": [[1, 4, 0], [234, 0, 0], [235, 0, 0]]
    }, 
    {
      "op": "Activation", 
      "name": "activation60", 
      "attr": {"act_type": "relu"}, 
      "inputs": [[236, 0, 0]]
    }, 
    {
      "op": "Pooling", 
      "name": "pooling12", 
      "attr": {
        "kernel": "(3, 3)", 
        "pool_type": "max", 
        "stride": "(2, 2)"
      }, 
      "inputs": [[237, 0, 0]]
    }, 
    {
      "op": "LRN", 
      "name": "lrn8", 
      "attr": {
        "alpha": "0.0001", 
        "beta": "0.75", 
        "knorm": "1", 
        "nsize": "5"
      }, 
      "inputs": [[238, 0, 0]]
    }, 
    {
      "op": "null", 
      "name": "convolution21_weight", 
      "attr": {
        "kernel": "(5, 5)", 
        "num_filter": "256", 
        "pad": "(2, 2)"
      }, 
      "inputs": []
    }, 
    {
      "op": "null", 
      "name": "convolution21_bias", 
      "attr": {
        "kernel": "(5, 5)", 
        "num_filter": "256", 
        "pad": "(2, 2)"
      }, 
      "inputs": []
    }, 
    {
      "op": "Convolution", 
      "name": "convolution21", 
      "attr": {
        "kernel": "(5, 5)", 
        "num_filter": "256", 
        "pad": "(2, 2)"
      }, 
      "inputs": [[239, 0, 0], [240, 0, 0], [241, 0, 0]]
    }, 
    {
      "op": "Activation", 
      "name": "activation61", 
      "attr": {"act_type": "relu"}, 
      "inputs": [[242, 0, 0]]
    }, 
    {
      "op": "Pooling", 
      "name": "pooling13", 
      "attr": {
        "kernel": "(3, 3)", 
        "pool_type": "max", 
        "stride": "(2, 2)"
      }, 
      "inputs": [[243, 0, 0]]
    }, 
    {
      "op": "LRN", 
      "name": "lrn9", 
      "attr": {
        "alpha": "0.0001", 
        "beta": "0.75", 
        "knorm": "1", 
        "nsize": "5"
      }, 
      "inputs": [[244, 0, 0]]
    }, 
    {
      "op": "null", 
      "name": "convolution22_weight", 
      "attr": {
        "kernel": "(3, 3)", 
        "num_filter": "384", 
        "pad": "(1, 1)"
      }, 
      "inputs": []
    }, 
    {
      "op": "null", 
      "name": "convolution22_bias", 
      "attr": {
        "kernel": "(3, 3)", 
        "num_filter": "384", 
        "pad": "(1, 1)"
      }, 
      "inputs": []
    }, 
    {
      "op": "Convolution", 
      "name": "convolution22", 
      "attr": {
        "kernel": "(3, 3)", 
        "num_filter": "384", 
        "pad": "(1, 1)"
      }, 
      "inputs": [[245, 0, 0], [246, 0, 0], [247, 0, 0]]
    }, 
    {
      "op": "Activation", 
      "name": "activation62", 
      "attr": {"act_type": "relu"}, 
      "inputs": [[248, 0, 0]]
    }, 
    {
      "op": "null", 
      "name": "convolution23_weight", 
      "attr": {
        "kernel": "(3, 3)", 
        "num_filter": "384", 
        "pad": "(1, 1)"
      }, 
      "inputs": []
    }, 
    {
      "op": "null", 
      "name": "convolution23_bias", 
      "attr": {
        "kernel": "(3, 3)", 
        "num_filter": "384", 
        "pad": "(1, 1)"
      }, 
      "inputs": []
    }, 
    {
      "op": "Convolution", 
      "name": "convolution23", 
      "attr": {
        "kernel": "(3, 3)", 
        "num_filter": "384", 
        "pad": "(1, 1)"
      }, 
      "inputs": [[249, 0, 0], [250, 0, 0], [251, 0, 0]]
    }, 
    {
      "op": "Activation", 
      "name": "activation63", 
      "attr": {"act_type": "relu"}, 
      "inputs": [[252, 0, 0]]
    }, 
    {
      "op": "null", 
      "name": "convolution24_weight", 
      "attr": {
        "kernel": "(3, 3)", 
        "num_filter": "256", 
        "pad": "(1, 1)"
      }, 
      "inputs": []
    }, 
    {
      "op": "null", 
      "name": "convolution24_bias", 
      "attr": {
        "kernel": "(3, 3)", 
        "num_filter": "256", 
        "pad": "(1, 1)"
      }, 
      "inputs": []
    }, 
    {
      "op": "Convolution", 
      "name": "convolution24", 
      "attr": {
        "kernel": "(3, 3)", 
        "num_filter": "256", 
        "pad": "(1, 1)"
      }, 
      "inputs": [[253, 0, 0], [254, 0, 0], [255, 0, 0]]
    }, 
    {
      "op": "Activation", 
      "name": "activation64", 
      "attr": {"act_type": "relu"}, 
      "inputs": [[256, 0, 0]]
    }, 
    {
      "op": "Pooling", 
      "name": "pooling14", 
      "attr": {
        "kernel": "(3, 3)", 
        "pool_type": "max", 
        "stride": "(2, 2)"
      }, 
      "inputs": [[257, 0, 0]]
    }, 
    {
      "op": "Flatten", 
      "name": "flatten4", 
      "inputs": [[258, 0, 0]]
    }, 
    {
      "op": "null", 
      "name": "fullyconnected4_weight", 
      "attr": {"num_hidden": "4096"}, 
      "inputs": []
    }, 
    {
      "op": "null", 
      "name": "fullyconnected4_bias", 
      "attr": {"num_hidden": "4096"}, 
      "inputs": []
    }, 
    {
      "op": "FullyConnected", 
      "name": "fullyconnected4", 
      "attr": {"num_hidden": "4096"}, 
      "inputs": [[259, 0, 0], [260, 0, 0], [261, 0, 0]]
    }, 
    {
      "op": "FullyConnected", 
      "name": "t4_l0_i2h", 
      "attr": {"num_hidden": "16384"}, 
      "inputs": [[262, 0, 0], [31, 0, 0], [32, 0, 0]]
    }, 
    {
      "op": "FullyConnected", 
      "name": "t4_l0_h2h", 
      "attr": {"num_hidden": "16384"}, 
      "inputs": [[220, 0, 0], [35, 0, 0], [36, 0, 0]]
    }, 
    {
      "op": "elemwise_add", 
      "name": "_plus16", 
      "inputs": [[263, 0, 0], [264, 0, 0]]
    }, 
    {
      "op": "SliceChannel", 
      "name": "t4_l0_slice", 
      "attr": {"num_outputs": "4"}, 
      "inputs": [[265, 0, 0]]
    }, 
    {
      "op": "Activation", 
      "name": "activation68", 
      "attr": {"act_type": "sigmoid"}, 
      "inputs": [[266, 3, 0]]
    }, 
    {
      "op": "Activation", 
      "name": "activation67", 
      "attr": {"act_type": "sigmoid"}, 
      "inputs": [[266, 2, 0]]
    }, 
    {
      "op": "_mul", 
      "name": "_mul24", 
      "inputs": [[268, 0, 0], [218, 0, 0]]
    }, 
    {
      "op": "Activation", 
      "name": "activation65", 
      "attr": {"act_type": "sigmoid"}, 
      "inputs": [[266, 0, 0]]
    }, 
    {
      "op": "Activation", 
      "name": "activation66", 
      "attr": {"act_type": "tanh"}, 
      "inputs": [[266, 1, 0]]
    }, 
    {
      "op": "_mul", 
      "name": "_mul25", 
      "inputs": [[270, 0, 0], [271, 0, 0]]
    }, 
    {
      "op": "elemwise_add", 
      "name": "_plus17", 
      "inputs": [[269, 0, 0], [272, 0, 0]]
    }, 
    {
      "op": "Activation", 
      "name": "activation69", 
      "attr": {"act_type": "tanh"}, 
      "inputs": [[273, 0, 0]]
    }, 
    {
      "op": "_mul", 
      "name": "_mul26", 
      "inputs": [[267, 0, 0], [274, 0, 0]]
    }, 
    {
      "op": "FullyConnected", 
      "name": "t4_l1_i2h", 
      "attr": {"num_hidden": "16384"}, 
      "inputs": [[275, 0, 0], [50, 0, 0], [51, 0, 0]]
    }, 
    {
      "op": "FullyConnected", 
      "name": "t4_l1_h2h", 
      "attr": {"num_hidden": "16384"}, 
      "inputs": [[233, 0, 0], [54, 0, 0], [55, 0, 0]]
    }, 
    {
      "op": "elemwise_add", 
      "name": "_plus18", 
      "inputs": [[276, 0, 0], [277, 0, 0]]
    }, 
    {
      "op": "SliceChannel", 
      "name": "t4_l1_slice", 
      "attr": {"num_outputs": "4"}, 
      "inputs": [[278, 0, 0]]
    }, 
    {
      "op": "Activation", 
      "name": "activation73", 
      "attr": {"act_type": "sigmoid"}, 
      "inputs": [[279, 3, 0]]
    }, 
    {
      "op": "Activation", 
      "name": "activation72", 
      "attr": {"act_type": "sigmoid"}, 
      "inputs": [[279, 2, 0]]
    }, 
    {
      "op": "_mul", 
      "name": "_mul27", 
      "inputs": [[281, 0, 0], [231, 0, 0]]
    }, 
    {
      "op": "Activation", 
      "name": "activation70", 
      "attr": {"act_type": "sigmoid"}, 
      "inputs": [[279, 0, 0]]
    }, 
    {
      "op": "Activation", 
      "name": "activation71", 
      "attr": {"act_type": "tanh"}, 
      "inputs": [[279, 1, 0]]
    }, 
    {
      "op": "_mul", 
      "name": "_mul28", 
      "inputs": [[283, 0, 0], [284, 0, 0]]
    }, 
    {
      "op": "elemwise_add", 
      "name": "_plus19", 
      "inputs": [[282, 0, 0], [285, 0, 0]]
    }, 
    {
      "op": "Activation", 
      "name": "activation74", 
      "attr": {"act_type": "tanh"}, 
      "inputs": [[286, 0, 0]]
    }, 
    {
      "op": "_mul", 
      "name": "_mul29", 
      "inputs": [[280, 0, 0], [287, 0, 0]]
    }, 
    {
      "op": "null", 
      "name": "convolution25_weight", 
      "attr": {
        "kernel": "(11, 11)", 
        "num_filter": "96", 
        "stride": "(4, 4)"
      }, 
      "inputs": []
    }, 
    {
      "op": "null", 
      "name": "convolution25_bias", 
      "attr": {
        "kernel": "(11, 11)", 
        "num_filter": "96", 
        "stride": "(4, 4)"
      }, 
      "inputs": []
    }, 
    {
      "op": "Convolution", 
      "name": "convolution25", 
      "attr": {
        "kernel": "(11, 11)", 
        "num_filter": "96", 
        "stride": "(4, 4)"
      }, 
      "inputs": [[1, 5, 0], [289, 0, 0], [290, 0, 0]]
    }, 
    {
      "op": "Activation", 
      "name": "activation75", 
      "attr": {"act_type": "relu"}, 
      "inputs": [[291, 0, 0]]
    }, 
    {
      "op": "Pooling", 
      "name": "pooling15", 
      "attr": {
        "kernel": "(3, 3)", 
        "pool_type": "max", 
        "stride": "(2, 2)"
      }, 
      "inputs": [[292, 0, 0]]
    }, 
    {
      "op": "LRN", 
      "name": "lrn10", 
      "attr": {
        "alpha": "0.0001", 
        "beta": "0.75", 
        "knorm": "1", 
        "nsize": "5"
      }, 
      "inputs": [[293, 0, 0]]
    }, 
    {
      "op": "null", 
      "name": "convolution26_weight", 
      "attr": {
        "kernel": "(5, 5)", 
        "num_filter": "256", 
        "pad": "(2, 2)"
      }, 
      "inputs": []
    }, 
    {
      "op": "null", 
      "name": "convolution26_bias", 
      "attr": {
        "kernel": "(5, 5)", 
        "num_filter": "256", 
        "pad": "(2, 2)"
      }, 
      "inputs": []
    }, 
    {
      "op": "Convolution", 
      "name": "convolution26", 
      "attr": {
        "kernel": "(5, 5)", 
        "num_filter": "256", 
        "pad": "(2, 2)"
      }, 
      "inputs": [[294, 0, 0], [295, 0, 0], [296, 0, 0]]
    }, 
    {
      "op": "Activation", 
      "name": "activation76", 
      "attr": {"act_type": "relu"}, 
      "inputs": [[297, 0, 0]]
    }, 
    {
      "op": "Pooling", 
      "name": "pooling16", 
      "attr": {
        "kernel": "(3, 3)", 
        "pool_type": "max", 
        "stride": "(2, 2)"
      }, 
      "inputs": [[298, 0, 0]]
    }, 
    {
      "op": "LRN", 
      "name": "lrn11", 
      "attr": {
        "alpha": "0.0001", 
        "beta": "0.75", 
        "knorm": "1", 
        "nsize": "5"
      }, 
      "inputs": [[299, 0, 0]]
    }, 
    {
      "op": "null", 
      "name": "convolution27_weight", 
      "attr": {
        "kernel": "(3, 3)", 
        "num_filter": "384", 
        "pad": "(1, 1)"
      }, 
      "inputs": []
    }, 
    {
      "op": "null", 
      "name": "convolution27_bias", 
      "attr": {
        "kernel": "(3, 3)", 
        "num_filter": "384", 
        "pad": "(1, 1)"
      }, 
      "inputs": []
    }, 
    {
      "op": "Convolution", 
      "name": "convolution27", 
      "attr": {
        "kernel": "(3, 3)", 
        "num_filter": "384", 
        "pad": "(1, 1)"
      }, 
      "inputs": [[300, 0, 0], [301, 0, 0], [302, 0, 0]]
    }, 
    {
      "op": "Activation", 
      "name": "activation77", 
      "attr": {"act_type": "relu"}, 
      "inputs": [[303, 0, 0]]
    }, 
    {
      "op": "null", 
      "name": "convolution28_weight", 
      "attr": {
        "kernel": "(3, 3)", 
        "num_filter": "384", 
        "pad": "(1, 1)"
      }, 
      "inputs": []
    }, 
    {
      "op": "null", 
      "name": "convolution28_bias", 
      "attr": {
        "kernel": "(3, 3)", 
        "num_filter": "384", 
        "pad": "(1, 1)"
      }, 
      "inputs": []
    }, 
    {
      "op": "Convolution", 
      "name": "convolution28", 
      "attr": {
        "kernel": "(3, 3)", 
        "num_filter": "384", 
        "pad": "(1, 1)"
      }, 
      "inputs": [[304, 0, 0], [305, 0, 0], [306, 0, 0]]
    }, 
    {
      "op": "Activation", 
      "name": "activation78", 
      "attr": {"act_type": "relu"}, 
      "inputs": [[307, 0, 0]]
    }, 
    {
      "op": "null", 
      "name": "convolution29_weight", 
      "attr": {
        "kernel": "(3, 3)", 
        "num_filter": "256", 
        "pad": "(1, 1)"
      }, 
      "inputs": []
    }, 
    {
      "op": "null", 
      "name": "convolution29_bias", 
      "attr": {
        "kernel": "(3, 3)", 
        "num_filter": "256", 
        "pad": "(1, 1)"
      }, 
      "inputs": []
    }, 
    {
      "op": "Convolution", 
      "name": "convolution29", 
      "attr": {
        "kernel": "(3, 3)", 
        "num_filter": "256", 
        "pad": "(1, 1)"
      }, 
      "inputs": [[308, 0, 0], [309, 0, 0], [310, 0, 0]]
    }, 
    {
      "op": "Activation", 
      "name": "activation79", 
      "attr": {"act_type": "relu"}, 
      "inputs": [[311, 0, 0]]
    }, 
    {
      "op": "Pooling", 
      "name": "pooling17", 
      "attr": {
        "kernel": "(3, 3)", 
        "pool_type": "max", 
        "stride": "(2, 2)"
      }, 
      "inputs": [[312, 0, 0]]
    }, 
    {
      "op": "Flatten", 
      "name": "flatten5", 
      "inputs": [[313, 0, 0]]
    }, 
    {
      "op": "null", 
      "name": "fullyconnected5_weight", 
      "attr": {"num_hidden": "4096"}, 
      "inputs": []
    }, 
    {
      "op": "null", 
      "name": "fullyconnected5_bias", 
      "attr": {"num_hidden": "4096"}, 
      "inputs": []
    }, 
    {
      "op": "FullyConnected", 
      "name": "fullyconnected5", 
      "attr": {"num_hidden": "4096"}, 
      "inputs": [[314, 0, 0], [315, 0, 0], [316, 0, 0]]
    }, 
    {
      "op": "FullyConnected", 
      "name": "t5_l0_i2h", 
      "attr": {"num_hidden": "16384"}, 
      "inputs": [[317, 0, 0], [31, 0, 0], [32, 0, 0]]
    }, 
    {
      "op": "FullyConnected", 
      "name": "t5_l0_h2h", 
      "attr": {"num_hidden": "16384"}, 
      "inputs": [[275, 0, 0], [35, 0, 0], [36, 0, 0]]
    }, 
    {
      "op": "elemwise_add", 
      "name": "_plus20", 
      "inputs": [[318, 0, 0], [319, 0, 0]]
    }, 
    {
      "op": "SliceChannel", 
      "name": "t5_l0_slice", 
      "attr": {"num_outputs": "4"}, 
      "inputs": [[320, 0, 0]]
    }, 
    {
      "op": "Activation", 
      "name": "activation83", 
      "attr": {"act_type": "sigmoid"}, 
      "inputs": [[321, 3, 0]]
    }, 
    {
      "op": "Activation", 
      "name": "activation82", 
      "attr": {"act_type": "sigmoid"}, 
      "inputs": [[321, 2, 0]]
    }, 
    {
      "op": "_mul", 
      "name": "_mul30", 
      "inputs": [[323, 0, 0], [273, 0, 0]]
    }, 
    {
      "op": "Activation", 
      "name": "activation80", 
      "attr": {"act_type": "sigmoid"}, 
      "inputs": [[321, 0, 0]]
    }, 
    {
      "op": "Activation", 
      "name": "activation81", 
      "attr": {"act_type": "tanh"}, 
      "inputs": [[321, 1, 0]]
    }, 
    {
      "op": "_mul", 
      "name": "_mul31", 
      "inputs": [[325, 0, 0], [326, 0, 0]]
    }, 
    {
      "op": "elemwise_add", 
      "name": "_plus21", 
      "inputs": [[324, 0, 0], [327, 0, 0]]
    }, 
    {
      "op": "Activation", 
      "name": "activation84", 
      "attr": {"act_type": "tanh"}, 
      "inputs": [[328, 0, 0]]
    }, 
    {
      "op": "_mul", 
      "name": "_mul32", 
      "inputs": [[322, 0, 0], [329, 0, 0]]
    }, 
    {
      "op": "FullyConnected", 
      "name": "t5_l1_i2h", 
      "attr": {"num_hidden": "16384"}, 
      "inputs": [[330, 0, 0], [50, 0, 0], [51, 0, 0]]
    }, 
    {
      "op": "FullyConnected", 
      "name": "t5_l1_h2h", 
      "attr": {"num_hidden": "16384"}, 
      "inputs": [[288, 0, 0], [54, 0, 0], [55, 0, 0]]
    }, 
    {
      "op": "elemwise_add", 
      "name": "_plus22", 
      "inputs": [[331, 0, 0], [332, 0, 0]]
    }, 
    {
      "op": "SliceChannel", 
      "name": "t5_l1_slice", 
      "attr": {"num_outputs": "4"}, 
      "inputs": [[333, 0, 0]]
    }, 
    {
      "op": "Activation", 
      "name": "activation88", 
      "attr": {"act_type": "sigmoid"}, 
      "inputs": [[334, 3, 0]]
    }, 
    {
      "op": "Activation", 
      "name": "activation87", 
      "attr": {"act_type": "sigmoid"}, 
      "inputs": [[334, 2, 0]]
    }, 
    {
      "op": "_mul", 
      "name": "_mul33", 
      "inputs": [[336, 0, 0], [286, 0, 0]]
    }, 
    {
      "op": "Activation", 
      "name": "activation85", 
      "attr": {"act_type": "sigmoid"}, 
      "inputs": [[334, 0, 0]]
    }, 
    {
      "op": "Activation", 
      "name": "activation86", 
      "attr": {"act_type": "tanh"}, 
      "inputs": [[334, 1, 0]]
    }, 
    {
      "op": "_mul", 
      "name": "_mul34", 
      "inputs": [[338, 0, 0], [339, 0, 0]]
    }, 
    {
      "op": "elemwise_add", 
      "name": "_plus23", 
      "inputs": [[337, 0, 0], [340, 0, 0]]
    }, 
    {
      "op": "Activation", 
      "name": "activation89", 
      "attr": {"act_type": "tanh"}, 
      "inputs": [[341, 0, 0]]
    }, 
    {
      "op": "_mul", 
      "name": "_mul35", 
      "inputs": [[335, 0, 0], [342, 0, 0]]
    }, 
    {
      "op": "null", 
      "name": "convolution30_weight", 
      "attr": {
        "kernel": "(11, 11)", 
        "num_filter": "96", 
        "stride": "(4, 4)"
      }, 
      "inputs": []
    }, 
    {
      "op": "null", 
      "name": "convolution30_bias", 
      "attr": {
        "kernel": "(11, 11)", 
        "num_filter": "96", 
        "stride": "(4, 4)"
      }, 
      "inputs": []
    }, 
    {
      "op": "Convolution", 
      "name": "convolution30", 
      "attr": {
        "kernel": "(11, 11)", 
        "num_filter": "96", 
        "stride": "(4, 4)"
      }, 
      "inputs": [[1, 6, 0], [344, 0, 0], [345, 0, 0]]
    }, 
    {
      "op": "Activation", 
      "name": "activation90", 
      "attr": {"act_type": "relu"}, 
      "inputs": [[346, 0, 0]]
    }, 
    {
      "op": "Pooling", 
      "name": "pooling18", 
      "attr": {
        "kernel": "(3, 3)", 
        "pool_type": "max", 
        "stride": "(2, 2)"
      }, 
      "inputs": [[347, 0, 0]]
    }, 
    {
      "op": "LRN", 
      "name": "lrn12", 
      "attr": {
        "alpha": "0.0001", 
        "beta": "0.75", 
        "knorm": "1", 
        "nsize": "5"
      }, 
      "inputs": [[348, 0, 0]]
    }, 
    {
      "op": "null", 
      "name": "convolution31_weight", 
      "attr": {
        "kernel": "(5, 5)", 
        "num_filter": "256", 
        "pad": "(2, 2)"
      }, 
      "inputs": []
    }, 
    {
      "op": "null", 
      "name": "convolution31_bias", 
      "attr": {
        "kernel": "(5, 5)", 
        "num_filter": "256", 
        "pad": "(2, 2)"
      }, 
      "inputs": []
    }, 
    {
      "op": "Convolution", 
      "name": "convolution31", 
      "attr": {
        "kernel": "(5, 5)", 
        "num_filter": "256", 
        "pad": "(2, 2)"
      }, 
      "inputs": [[349, 0, 0], [350, 0, 0], [351, 0, 0]]
    }, 
    {
      "op": "Activation", 
      "name": "activation91", 
      "attr": {"act_type": "relu"}, 
      "inputs": [[352, 0, 0]]
    }, 
    {
      "op": "Pooling", 
      "name": "pooling19", 
      "attr": {
        "kernel": "(3, 3)", 
        "pool_type": "max", 
        "stride": "(2, 2)"
      }, 
      "inputs": [[353, 0, 0]]
    }, 
    {
      "op": "LRN", 
      "name": "lrn13", 
      "attr": {
        "alpha": "0.0001", 
        "beta": "0.75", 
        "knorm": "1", 
        "nsize": "5"
      }, 
      "inputs": [[354, 0, 0]]
    }, 
    {
      "op": "null", 
      "name": "convolution32_weight", 
      "attr": {
        "kernel": "(3, 3)", 
        "num_filter": "384", 
        "pad": "(1, 1)"
      }, 
      "inputs": []
    }, 
    {
      "op": "null", 
      "name": "convolution32_bias", 
      "attr": {
        "kernel": "(3, 3)", 
        "num_filter": "384", 
        "pad": "(1, 1)"
      }, 
      "inputs": []
    }, 
    {
      "op": "Convolution", 
      "name": "convolution32", 
      "attr": {
        "kernel": "(3, 3)", 
        "num_filter": "384", 
        "pad": "(1, 1)"
      }, 
      "inputs": [[355, 0, 0], [356, 0, 0], [357, 0, 0]]
    }, 
    {
      "op": "Activation", 
      "name": "activation92", 
      "attr": {"act_type": "relu"}, 
      "inputs": [[358, 0, 0]]
    }, 
    {
      "op": "null", 
      "name": "convolution33_weight", 
      "attr": {
        "kernel": "(3, 3)", 
        "num_filter": "384", 
        "pad": "(1, 1)"
      }, 
      "inputs": []
    }, 
    {
      "op": "null", 
      "name": "convolution33_bias", 
      "attr": {
        "kernel": "(3, 3)", 
        "num_filter": "384", 
        "pad": "(1, 1)"
      }, 
      "inputs": []
    }, 
    {
      "op": "Convolution", 
      "name": "convolution33", 
      "attr": {
        "kernel": "(3, 3)", 
        "num_filter": "384", 
        "pad": "(1, 1)"
      }, 
      "inputs": [[359, 0, 0], [360, 0, 0], [361, 0, 0]]
    }, 
    {
      "op": "Activation", 
      "name": "activation93", 
      "attr": {"act_type": "relu"}, 
      "inputs": [[362, 0, 0]]
    }, 
    {
      "op": "null", 
      "name": "convolution34_weight", 
      "attr": {
        "kernel": "(3, 3)", 
        "num_filter": "256", 
        "pad": "(1, 1)"
      }, 
      "inputs": []
    }, 
    {
      "op": "null", 
      "name": "convolution34_bias", 
      "attr": {
        "kernel": "(3, 3)", 
        "num_filter": "256", 
        "pad": "(1, 1)"
      }, 
      "inputs": []
    }, 
    {
      "op": "Convolution", 
      "name": "convolution34", 
      "attr": {
        "kernel": "(3, 3)", 
        "num_filter": "256", 
        "pad": "(1, 1)"
      }, 
      "inputs": [[363, 0, 0], [364, 0, 0], [365, 0, 0]]
    }, 
    {
      "op": "Activation", 
      "name": "activation94", 
      "attr": {"act_type": "relu"}, 
      "inputs": [[366, 0, 0]]
    }, 
    {
      "op": "Pooling", 
      "name": "pooling20", 
      "attr": {
        "kernel": "(3, 3)", 
        "pool_type": "max", 
        "stride": "(2, 2)"
      }, 
      "inputs": [[367, 0, 0]]
    }, 
    {
      "op": "Flatten", 
      "name": "flatten6", 
      "inputs": [[368, 0, 0]]
    }, 
    {
      "op": "null", 
      "name": "fullyconnected6_weight", 
      "attr": {"num_hidden": "4096"}, 
      "inputs": []
    }, 
    {
      "op": "null", 
      "name": "fullyconnected6_bias", 
      "attr": {"num_hidden": "4096"}, 
      "inputs": []
    }, 
    {
      "op": "FullyConnected", 
      "name": "fullyconnected6", 
      "attr": {"num_hidden": "4096"}, 
      "inputs": [[369, 0, 0], [370, 0, 0], [371, 0, 0]]
    }, 
    {
      "op": "FullyConnected", 
      "name": "t6_l0_i2h", 
      "attr": {"num_hidden": "16384"}, 
      "inputs": [[372, 0, 0], [31, 0, 0], [32, 0, 0]]
    }, 
    {
      "op": "FullyConnected", 
      "name": "t6_l0_h2h", 
      "attr": {"num_hidden": "16384"}, 
      "inputs": [[330, 0, 0], [35, 0, 0], [36, 0, 0]]
    }, 
    {
      "op": "elemwise_add", 
      "name": "_plus24", 
      "inputs": [[373, 0, 0], [374, 0, 0]]
    }, 
    {
      "op": "SliceChannel", 
      "name": "t6_l0_slice", 
      "attr": {"num_outputs": "4"}, 
      "inputs": [[375, 0, 0]]
    }, 
    {
      "op": "Activation", 
      "name": "activation98", 
      "attr": {"act_type": "sigmoid"}, 
      "inputs": [[376, 3, 0]]
    }, 
    {
      "op": "Activation", 
      "name": "activation97", 
      "attr": {"act_type": "sigmoid"}, 
      "inputs": [[376, 2, 0]]
    }, 
    {
      "op": "_mul", 
      "name": "_mul36", 
      "inputs": [[378, 0, 0], [328, 0, 0]]
    }, 
    {
      "op": "Activation", 
      "name": "activation95", 
      "attr": {"act_type": "sigmoid"}, 
      "inputs": [[376, 0, 0]]
    }, 
    {
      "op": "Activation", 
      "name": "activation96", 
      "attr": {"act_type": "tanh"}, 
      "inputs": [[376, 1, 0]]
    }, 
    {
      "op": "_mul", 
      "name": "_mul37", 
      "inputs": [[380, 0, 0], [381, 0, 0]]
    }, 
    {
      "op": "elemwise_add", 
      "name": "_plus25", 
      "inputs": [[379, 0, 0], [382, 0, 0]]
    }, 
    {
      "op": "Activation", 
      "name": "activation99", 
      "attr": {"act_type": "tanh"}, 
      "inputs": [[383, 0, 0]]
    }, 
    {
      "op": "_mul", 
      "name": "_mul38", 
      "inputs": [[377, 0, 0], [384, 0, 0]]
    }, 
    {
      "op": "FullyConnected", 
      "name": "t6_l1_i2h", 
      "attr": {"num_hidden": "16384"}, 
      "inputs": [[385, 0, 0], [50, 0, 0], [51, 0, 0]]
    }, 
    {
      "op": "FullyConnected", 
      "name": "t6_l1_h2h", 
      "attr": {"num_hidden": "16384"}, 
      "inputs": [[343, 0, 0], [54, 0, 0], [55, 0, 0]]
    }, 
    {
      "op": "elemwise_add", 
      "name": "_plus26", 
      "inputs": [[386, 0, 0], [387, 0, 0]]
    }, 
    {
      "op": "SliceChannel", 
      "name": "t6_l1_slice", 
      "attr": {"num_outputs": "4"}, 
      "inputs": [[388, 0, 0]]
    }, 
    {
      "op": "Activation", 
      "name": "activation103", 
      "attr": {"act_type": "sigmoid"}, 
      "inputs": [[389, 3, 0]]
    }, 
    {
      "op": "Activation", 
      "name": "activation102", 
      "attr": {"act_type": "sigmoid"}, 
      "inputs": [[389, 2, 0]]
    }, 
    {
      "op": "_mul", 
      "name": "_mul39", 
      "inputs": [[391, 0, 0], [341, 0, 0]]
    }, 
    {
      "op": "Activation", 
      "name": "activation100", 
      "attr": {"act_type": "sigmoid"}, 
      "inputs": [[389, 0, 0]]
    }, 
    {
      "op": "Activation", 
      "name": "activation101", 
      "attr": {"act_type": "tanh"}, 
      "inputs": [[389, 1, 0]]
    }, 
    {
      "op": "_mul", 
      "name": "_mul40", 
      "inputs": [[393, 0, 0], [394, 0, 0]]
    }, 
    {
      "op": "elemwise_add", 
      "name": "_plus27", 
      "inputs": [[392, 0, 0], [395, 0, 0]]
    }, 
    {
      "op": "Activation", 
      "name": "activation104", 
      "attr": {"act_type": "tanh"}, 
      "inputs": [[396, 0, 0]]
    }, 
    {
      "op": "_mul", 
      "name": "_mul41", 
      "inputs": [[390, 0, 0], [397, 0, 0]]
    }, 
    {
      "op": "null", 
      "name": "convolution35_weight", 
      "attr": {
        "kernel": "(11, 11)", 
        "num_filter": "96", 
        "stride": "(4, 4)"
      }, 
      "inputs": []
    }, 
    {
      "op": "null", 
      "name": "convolution35_bias", 
      "attr": {
        "kernel": "(11, 11)", 
        "num_filter": "96", 
        "stride": "(4, 4)"
      }, 
      "inputs": []
    }, 
    {
      "op": "Convolution", 
      "name": "convolution35", 
      "attr": {
        "kernel": "(11, 11)", 
        "num_filter": "96", 
        "stride": "(4, 4)"
      }, 
      "inputs": [[1, 7, 0], [399, 0, 0], [400, 0, 0]]
    }, 
    {
      "op": "Activation", 
      "name": "activation105", 
      "attr": {"act_type": "relu"}, 
      "inputs": [[401, 0, 0]]
    }, 
    {
      "op": "Pooling", 
      "name": "pooling21", 
      "attr": {
        "kernel": "(3, 3)", 
        "pool_type": "max", 
        "stride": "(2, 2)"
      }, 
      "inputs": [[402, 0, 0]]
    }, 
    {
      "op": "LRN", 
      "name": "lrn14", 
      "attr": {
        "alpha": "0.0001", 
        "beta": "0.75", 
        "knorm": "1", 
        "nsize": "5"
      }, 
      "inputs": [[403, 0, 0]]
    }, 
    {
      "op": "null", 
      "name": "convolution36_weight", 
      "attr": {
        "kernel": "(5, 5)", 
        "num_filter": "256", 
        "pad": "(2, 2)"
      }, 
      "inputs": []
    }, 
    {
      "op": "null", 
      "name": "convolution36_bias", 
      "attr": {
        "kernel": "(5, 5)", 
        "num_filter": "256", 
        "pad": "(2, 2)"
      }, 
      "inputs": []
    }, 
    {
      "op": "Convolution", 
      "name": "convolution36", 
      "attr": {
        "kernel": "(5, 5)", 
        "num_filter": "256", 
        "pad": "(2, 2)"
      }, 
      "inputs": [[404, 0, 0], [405, 0, 0], [406, 0, 0]]
    }, 
    {
      "op": "Activation", 
      "name": "activation106", 
      "attr": {"act_type": "relu"}, 
      "inputs": [[407, 0, 0]]
    }, 
    {
      "op": "Pooling", 
      "name": "pooling22", 
      "attr": {
        "kernel": "(3, 3)", 
        "pool_type": "max", 
        "stride": "(2, 2)"
      }, 
      "inputs": [[408, 0, 0]]
    }, 
    {
      "op": "LRN", 
      "name": "lrn15", 
      "attr": {
        "alpha": "0.0001", 
        "beta": "0.75", 
        "knorm": "1", 
        "nsize": "5"
      }, 
      "inputs": [[409, 0, 0]]
    }, 
    {
      "op": "null", 
      "name": "convolution37_weight", 
      "attr": {
        "kernel": "(3, 3)", 
        "num_filter": "384", 
        "pad": "(1, 1)"
      }, 
      "inputs": []
    }, 
    {
      "op": "null", 
      "name": "convolution37_bias", 
      "attr": {
        "kernel": "(3, 3)", 
        "num_filter": "384", 
        "pad": "(1, 1)"
      }, 
      "inputs": []
    }, 
    {
      "op": "Convolution", 
      "name": "convolution37", 
      "attr": {
        "kernel": "(3, 3)", 
        "num_filter": "384", 
        "pad": "(1, 1)"
      }, 
      "inputs": [[410, 0, 0], [411, 0, 0], [412, 0, 0]]
    }, 
    {
      "op": "Activation", 
      "name": "activation107", 
      "attr": {"act_type": "relu"}, 
      "inputs": [[413, 0, 0]]
    }, 
    {
      "op": "null", 
      "name": "convolution38_weight", 
      "attr": {
        "kernel": "(3, 3)", 
        "num_filter": "384", 
        "pad": "(1, 1)"
      }, 
      "inputs": []
    }, 
    {
      "op": "null", 
      "name": "convolution38_bias", 
      "attr": {
        "kernel": "(3, 3)", 
        "num_filter": "384", 
        "pad": "(1, 1)"
      }, 
      "inputs": []
    }, 
    {
      "op": "Convolution", 
      "name": "convolution38", 
      "attr": {
        "kernel": "(3, 3)", 
        "num_filter": "384", 
        "pad": "(1, 1)"
      }, 
      "inputs": [[414, 0, 0], [415, 0, 0], [416, 0, 0]]
    }, 
    {
      "op": "Activation", 
      "name": "activation108", 
      "attr": {"act_type": "relu"}, 
      "inputs": [[417, 0, 0]]
    }, 
    {
      "op": "null", 
      "name": "convolution39_weight", 
      "attr": {
        "kernel": "(3, 3)", 
        "num_filter": "256", 
        "pad": "(1, 1)"
      }, 
      "inputs": []
    }, 
    {
      "op": "null", 
      "name": "convolution39_bias", 
      "attr": {
        "kernel": "(3, 3)", 
        "num_filter": "256", 
        "pad": "(1, 1)"
      }, 
      "inputs": []
    }, 
    {
      "op": "Convolution", 
      "name": "convolution39", 
      "attr": {
        "kernel": "(3, 3)", 
        "num_filter": "256", 
        "pad": "(1, 1)"
      }, 
      "inputs": [[418, 0, 0], [419, 0, 0], [420, 0, 0]]
    }, 
    {
      "op": "Activation", 
      "name": "activation109", 
      "attr": {"act_type": "relu"}, 
      "inputs": [[421, 0, 0]]
    }, 
    {
      "op": "Pooling", 
      "name": "pooling23", 
      "attr": {
        "kernel": "(3, 3)", 
        "pool_type": "max", 
        "stride": "(2, 2)"
      }, 
      "inputs": [[422, 0, 0]]
    }, 
    {
      "op": "Flatten", 
      "name": "flatten7", 
      "inputs": [[423, 0, 0]]
    }, 
    {
      "op": "null", 
      "name": "fullyconnected7_weight", 
      "attr": {"num_hidden": "4096"}, 
      "inputs": []
    }, 
    {
      "op": "null", 
      "name": "fullyconnected7_bias", 
      "attr": {"num_hidden": "4096"}, 
      "inputs": []
    }, 
    {
      "op": "FullyConnected", 
      "name": "fullyconnected7", 
      "attr": {"num_hidden": "4096"}, 
      "inputs": [[424, 0, 0], [425, 0, 0], [426, 0, 0]]
    }, 
    {
      "op": "FullyConnected", 
      "name": "t7_l0_i2h", 
      "attr": {"num_hidden": "16384"}, 
      "inputs": [[427, 0, 0], [31, 0, 0], [32, 0, 0]]
    }, 
    {
      "op": "FullyConnected", 
      "name": "t7_l0_h2h", 
      "attr": {"num_hidden": "16384"}, 
      "inputs": [[385, 0, 0], [35, 0, 0], [36, 0, 0]]
    }, 
    {
      "op": "elemwise_add", 
      "name": "_plus28", 
      "inputs": [[428, 0, 0], [429, 0, 0]]
    }, 
    {
      "op": "SliceChannel", 
      "name": "t7_l0_slice", 
      "attr": {"num_outputs": "4"}, 
      "inputs": [[430, 0, 0]]
    }, 
    {
      "op": "Activation", 
      "name": "activation113", 
      "attr": {"act_type": "sigmoid"}, 
      "inputs": [[431, 3, 0]]
    }, 
    {
      "op": "Activation", 
      "name": "activation112", 
      "attr": {"act_type": "sigmoid"}, 
      "inputs": [[431, 2, 0]]
    }, 
    {
      "op": "_mul", 
      "name": "_mul42", 
      "inputs": [[433, 0, 0], [383, 0, 0]]
    }, 
    {
      "op": "Activation", 
      "name": "activation110", 
      "attr": {"act_type": "sigmoid"}, 
      "inputs": [[431, 0, 0]]
    }, 
    {
      "op": "Activation", 
      "name": "activation111", 
      "attr": {"act_type": "tanh"}, 
      "inputs": [[431, 1, 0]]
    }, 
    {
      "op": "_mul", 
      "name": "_mul43", 
      "inputs": [[435, 0, 0], [436, 0, 0]]
    }, 
    {
      "op": "elemwise_add", 
      "name": "_plus29", 
      "inputs": [[434, 0, 0], [437, 0, 0]]
    }, 
    {
      "op": "Activation", 
      "name": "activation114", 
      "attr": {"act_type": "tanh"}, 
      "inputs": [[438, 0, 0]]
    }, 
    {
      "op": "_mul", 
      "name": "_mul44", 
      "inputs": [[432, 0, 0], [439, 0, 0]]
    }, 
    {
      "op": "FullyConnected", 
      "name": "t7_l1_i2h", 
      "attr": {"num_hidden": "16384"}, 
      "inputs": [[440, 0, 0], [50, 0, 0], [51, 0, 0]]
    }, 
    {
      "op": "FullyConnected", 
      "name": "t7_l1_h2h", 
      "attr": {"num_hidden": "16384"}, 
      "inputs": [[398, 0, 0], [54, 0, 0], [55, 0, 0]]
    }, 
    {
      "op": "elemwise_add", 
      "name": "_plus30", 
      "inputs": [[441, 0, 0], [442, 0, 0]]
    }, 
    {
      "op": "SliceChannel", 
      "name": "t7_l1_slice", 
      "attr": {"num_outputs": "4"}, 
      "inputs": [[443, 0, 0]]
    }, 
    {
      "op": "Activation", 
      "name": "activation118", 
      "attr": {"act_type": "sigmoid"}, 
      "inputs": [[444, 3, 0]]
    }, 
    {
      "op": "Activation", 
      "name": "activation117", 
      "attr": {"act_type": "sigmoid"}, 
      "inputs": [[444, 2, 0]]
    }, 
    {
      "op": "_mul", 
      "name": "_mul45", 
      "inputs": [[446, 0, 0], [396, 0, 0]]
    }, 
    {
      "op": "Activation", 
      "name": "activation115", 
      "attr": {"act_type": "sigmoid"}, 
      "inputs": [[444, 0, 0]]
    }, 
    {
      "op": "Activation", 
      "name": "activation116", 
      "attr": {"act_type": "tanh"}, 
      "inputs": [[444, 1, 0]]
    }, 
    {
      "op": "_mul", 
      "name": "_mul46", 
      "inputs": [[448, 0, 0], [449, 0, 0]]
    }, 
    {
      "op": "elemwise_add", 
      "name": "_plus31", 
      "inputs": [[447, 0, 0], [450, 0, 0]]
    }, 
    {
      "op": "Activation", 
      "name": "activation119", 
      "attr": {"act_type": "tanh"}, 
      "inputs": [[451, 0, 0]]
    }, 
    {
      "op": "_mul", 
      "name": "_mul47", 
      "inputs": [[445, 0, 0], [452, 0, 0]]
    }, 
    {
      "op": "null", 
      "name": "convolution40_weight", 
      "attr": {
        "kernel": "(11, 11)", 
        "num_filter": "96", 
        "stride": "(4, 4)"
      }, 
      "inputs": []
    }, 
    {
      "op": "null", 
      "name": "convolution40_bias", 
      "attr": {
        "kernel": "(11, 11)", 
        "num_filter": "96", 
        "stride": "(4, 4)"
      }, 
      "inputs": []
    }, 
    {
      "op": "Convolution", 
      "name": "convolution40", 
      "attr": {
        "kernel": "(11, 11)", 
        "num_filter": "96", 
        "stride": "(4, 4)"
      }, 
      "inputs": [[1, 8, 0], [454, 0, 0], [455, 0, 0]]
    }, 
    {
      "op": "Activation", 
      "name": "activation120", 
      "attr": {"act_type": "relu"}, 
      "inputs": [[456, 0, 0]]
    }, 
    {
      "op": "Pooling", 
      "name": "pooling24", 
      "attr": {
        "kernel": "(3, 3)", 
        "pool_type": "max", 
        "stride": "(2, 2)"
      }, 
      "inputs": [[457, 0, 0]]
    }, 
    {
      "op": "LRN", 
      "name": "lrn16", 
      "attr": {
        "alpha": "0.0001", 
        "beta": "0.75", 
        "knorm": "1", 
        "nsize": "5"
      }, 
      "inputs": [[458, 0, 0]]
    }, 
    {
      "op": "null", 
      "name": "convolution41_weight", 
      "attr": {
        "kernel": "(5, 5)", 
        "num_filter": "256", 
        "pad": "(2, 2)"
      }, 
      "inputs": []
    }, 
    {
      "op": "null", 
      "name": "convolution41_bias", 
      "attr": {
        "kernel": "(5, 5)", 
        "num_filter": "256", 
        "pad": "(2, 2)"
      }, 
      "inputs": []
    }, 
    {
      "op": "Convolution", 
      "name": "convolution41", 
      "attr": {
        "kernel": "(5, 5)", 
        "num_filter": "256", 
        "pad": "(2, 2)"
      }, 
      "inputs": [[459, 0, 0], [460, 0, 0], [461, 0, 0]]
    }, 
    {
      "op": "Activation", 
      "name": "activation121", 
      "attr": {"act_type": "relu"}, 
      "inputs": [[462, 0, 0]]
    }, 
    {
      "op": "Pooling", 
      "name": "pooling25", 
      "attr": {
        "kernel": "(3, 3)", 
        "pool_type": "max", 
        "stride": "(2, 2)"
      }, 
      "inputs": [[463, 0, 0]]
    }, 
    {
      "op": "LRN", 
      "name": "lrn17", 
      "attr": {
        "alpha": "0.0001", 
        "beta": "0.75", 
        "knorm": "1", 
        "nsize": "5"
      }, 
      "inputs": [[464, 0, 0]]
    }, 
    {
      "op": "null", 
      "name": "convolution42_weight", 
      "attr": {
        "kernel": "(3, 3)", 
        "num_filter": "384", 
        "pad": "(1, 1)"
      }, 
      "inputs": []
    }, 
    {
      "op": "null", 
      "name": "convolution42_bias", 
      "attr": {
        "kernel": "(3, 3)", 
        "num_filter": "384", 
        "pad": "(1, 1)"
      }, 
      "inputs": []
    }, 
    {
      "op": "Convolution", 
      "name": "convolution42", 
      "attr": {
        "kernel": "(3, 3)", 
        "num_filter": "384", 
        "pad": "(1, 1)"
      }, 
      "inputs": [[465, 0, 0], [466, 0, 0], [467, 0, 0]]
    }, 
    {
      "op": "Activation", 
      "name": "activation122", 
      "attr": {"act_type": "relu"}, 
      "inputs": [[468, 0, 0]]
    }, 
    {
      "op": "null", 
      "name": "convolution43_weight", 
      "attr": {
        "kernel": "(3, 3)", 
        "num_filter": "384", 
        "pad": "(1, 1)"
      }, 
      "inputs": []
    }, 
    {
      "op": "null", 
      "name": "convolution43_bias", 
      "attr": {
        "kernel": "(3, 3)", 
        "num_filter": "384", 
        "pad": "(1, 1)"
      }, 
      "inputs": []
    }, 
    {
      "op": "Convolution", 
      "name": "convolution43", 
      "attr": {
        "kernel": "(3, 3)", 
        "num_filter": "384", 
        "pad": "(1, 1)"
      }, 
      "inputs": [[469, 0, 0], [470, 0, 0], [471, 0, 0]]
    }, 
    {
      "op": "Activation", 
      "name": "activation123", 
      "attr": {"act_type": "relu"}, 
      "inputs": [[472, 0, 0]]
    }, 
    {
      "op": "null", 
      "name": "convolution44_weight", 
      "attr": {
        "kernel": "(3, 3)", 
        "num_filter": "256", 
        "pad": "(1, 1)"
      }, 
      "inputs": []
    }, 
    {
      "op": "null", 
      "name": "convolution44_bias", 
      "attr": {
        "kernel": "(3, 3)", 
        "num_filter": "256", 
        "pad": "(1, 1)"
      }, 
      "inputs": []
    }, 
    {
      "op": "Convolution", 
      "name": "convolution44", 
      "attr": {
        "kernel": "(3, 3)", 
        "num_filter": "256", 
        "pad": "(1, 1)"
      }, 
      "inputs": [[473, 0, 0], [474, 0, 0], [475, 0, 0]]
    }, 
    {
      "op": "Activation", 
      "name": "activation124", 
      "attr": {"act_type": "relu"}, 
      "inputs": [[476, 0, 0]]
    }, 
    {
      "op": "Pooling", 
      "name": "pooling26", 
      "attr": {
        "kernel": "(3, 3)", 
        "pool_type": "max", 
        "stride": "(2, 2)"
      }, 
      "inputs": [[477, 0, 0]]
    }, 
    {
      "op": "Flatten", 
      "name": "flatten8", 
      "inputs": [[478, 0, 0]]
    }, 
    {
      "op": "null", 
      "name": "fullyconnected8_weight", 
      "attr": {"num_hidden": "4096"}, 
      "inputs": []
    }, 
    {
      "op": "null", 
      "name": "fullyconnected8_bias", 
      "attr": {"num_hidden": "4096"}, 
      "inputs": []
    }, 
    {
      "op": "FullyConnected", 
      "name": "fullyconnected8", 
      "attr": {"num_hidden": "4096"}, 
      "inputs": [[479, 0, 0], [480, 0, 0], [481, 0, 0]]
    }, 
    {
      "op": "FullyConnected", 
      "name": "t8_l0_i2h", 
      "attr": {"num_hidden": "16384"}, 
      "inputs": [[482, 0, 0], [31, 0, 0], [32, 0, 0]]
    }, 
    {
      "op": "FullyConnected", 
      "name": "t8_l0_h2h", 
      "attr": {"num_hidden": "16384"}, 
      "inputs": [[440, 0, 0], [35, 0, 0], [36, 0, 0]]
    }, 
    {
      "op": "elemwise_add", 
      "name": "_plus32", 
      "inputs": [[483, 0, 0], [484, 0, 0]]
    }, 
    {
      "op": "SliceChannel", 
      "name": "t8_l0_slice", 
      "attr": {"num_outputs": "4"}, 
      "inputs": [[485, 0, 0]]
    }, 
    {
      "op": "Activation", 
      "name": "activation128", 
      "attr": {"act_type": "sigmoid"}, 
      "inputs": [[486, 3, 0]]
    }, 
    {
      "op": "Activation", 
      "name": "activation127", 
      "attr": {"act_type": "sigmoid"}, 
      "inputs": [[486, 2, 0]]
    }, 
    {
      "op": "_mul", 
      "name": "_mul48", 
      "inputs": [[488, 0, 0], [438, 0, 0]]
    }, 
    {
      "op": "Activation", 
      "name": "activation125", 
      "attr": {"act_type": "sigmoid"}, 
      "inputs": [[486, 0, 0]]
    }, 
    {
      "op": "Activation", 
      "name": "activation126", 
      "attr": {"act_type": "tanh"}, 
      "inputs": [[486, 1, 0]]
    }, 
    {
      "op": "_mul", 
      "name": "_mul49", 
      "inputs": [[490, 0, 0], [491, 0, 0]]
    }, 
    {
      "op": "elemwise_add", 
      "name": "_plus33", 
      "inputs": [[489, 0, 0], [492, 0, 0]]
    }, 
    {
      "op": "Activation", 
      "name": "activation129", 
      "attr": {"act_type": "tanh"}, 
      "inputs": [[493, 0, 0]]
    }, 
    {
      "op": "_mul", 
      "name": "_mul50", 
      "inputs": [[487, 0, 0], [494, 0, 0]]
    }, 
    {
      "op": "FullyConnected", 
      "name": "t8_l1_i2h", 
      "attr": {"num_hidden": "16384"}, 
      "inputs": [[495, 0, 0], [50, 0, 0], [51, 0, 0]]
    }, 
    {
      "op": "FullyConnected", 
      "name": "t8_l1_h2h", 
      "attr": {"num_hidden": "16384"}, 
      "inputs": [[453, 0, 0], [54, 0, 0], [55, 0, 0]]
    }, 
    {
      "op": "elemwise_add", 
      "name": "_plus34", 
      "inputs": [[496, 0, 0], [497, 0, 0]]
    }, 
    {
      "op": "SliceChannel", 
      "name": "t8_l1_slice", 
      "attr": {"num_outputs": "4"}, 
      "inputs": [[498, 0, 0]]
    }, 
    {
      "op": "Activation", 
      "name": "activation133", 
      "attr": {"act_type": "sigmoid"}, 
      "inputs": [[499, 3, 0]]
    }, 
    {
      "op": "Activation", 
      "name": "activation132", 
      "attr": {"act_type": "sigmoid"}, 
      "inputs": [[499, 2, 0]]
    }, 
    {
      "op": "_mul", 
      "name": "_mul51", 
      "inputs": [[501, 0, 0], [451, 0, 0]]
    }, 
    {
      "op": "Activation", 
      "name": "activation130", 
      "attr": {"act_type": "sigmoid"}, 
      "inputs": [[499, 0, 0]]
    }, 
    {
      "op": "Activation", 
      "name": "activation131", 
      "attr": {"act_type": "tanh"}, 
      "inputs": [[499, 1, 0]]
    }, 
    {
      "op": "_mul", 
      "name": "_mul52", 
      "inputs": [[503, 0, 0], [504, 0, 0]]
    }, 
    {
      "op": "elemwise_add", 
      "name": "_plus35", 
      "inputs": [[502, 0, 0], [505, 0, 0]]
    }, 
    {
      "op": "Activation", 
      "name": "activation134", 
      "attr": {"act_type": "tanh"}, 
      "inputs": [[506, 0, 0]]
    }, 
    {
      "op": "_mul", 
      "name": "_mul53", 
      "inputs": [[500, 0, 0], [507, 0, 0]]
    }, 
    {
      "op": "null", 
      "name": "convolution45_weight", 
      "attr": {
        "kernel": "(11, 11)", 
        "num_filter": "96", 
        "stride": "(4, 4)"
      }, 
      "inputs": []
    }, 
    {
      "op": "null", 
      "name": "convolution45_bias", 
      "attr": {
        "kernel": "(11, 11)", 
        "num_filter": "96", 
        "stride": "(4, 4)"
      }, 
      "inputs": []
    }, 
    {
      "op": "Convolution", 
      "name": "convolution45", 
      "attr": {
        "kernel": "(11, 11)", 
        "num_filter": "96", 
        "stride": "(4, 4)"
      }, 
      "inputs": [[1, 9, 0], [509, 0, 0], [510, 0, 0]]
    }, 
    {
      "op": "Activation", 
      "name": "activation135", 
      "attr": {"act_type": "relu"}, 
      "inputs": [[511, 0, 0]]
    }, 
    {
      "op": "Pooling", 
      "name": "pooling27", 
      "attr": {
        "kernel": "(3, 3)", 
        "pool_type": "max", 
        "stride": "(2, 2)"
      }, 
      "inputs": [[512, 0, 0]]
    }, 
    {
      "op": "LRN", 
      "name": "lrn18", 
      "attr": {
        "alpha": "0.0001", 
        "beta": "0.75", 
        "knorm": "1", 
        "nsize": "5"
      }, 
      "inputs": [[513, 0, 0]]
    }, 
    {
      "op": "null", 
      "name": "convolution46_weight", 
      "attr": {
        "kernel": "(5, 5)", 
        "num_filter": "256", 
        "pad": "(2, 2)"
      }, 
      "inputs": []
    }, 
    {
      "op": "null", 
      "name": "convolution46_bias", 
      "attr": {
        "kernel": "(5, 5)", 
        "num_filter": "256", 
        "pad": "(2, 2)"
      }, 
      "inputs": []
    }, 
    {
      "op": "Convolution", 
      "name": "convolution46", 
      "attr": {
        "kernel": "(5, 5)", 
        "num_filter": "256", 
        "pad": "(2, 2)"
      }, 
      "inputs": [[514, 0, 0], [515, 0, 0], [516, 0, 0]]
    }, 
    {
      "op": "Activation", 
      "name": "activation136", 
      "attr": {"act_type": "relu"}, 
      "inputs": [[517, 0, 0]]
    }, 
    {
      "op": "Pooling", 
      "name": "pooling28", 
      "attr": {
        "kernel": "(3, 3)", 
        "pool_type": "max", 
        "stride": "(2, 2)"
      }, 
      "inputs": [[518, 0, 0]]
    }, 
    {
      "op": "LRN", 
      "name": "lrn19", 
      "attr": {
        "alpha": "0.0001", 
        "beta": "0.75", 
        "knorm": "1", 
        "nsize": "5"
      }, 
      "inputs": [[519, 0, 0]]
    }, 
    {
      "op": "null", 
      "name": "convolution47_weight", 
      "attr": {
        "kernel": "(3, 3)", 
        "num_filter": "384", 
        "pad": "(1, 1)"
      }, 
      "inputs": []
    }, 
    {
      "op": "null", 
      "name": "convolution47_bias", 
      "attr": {
        "kernel": "(3, 3)", 
        "num_filter": "384", 
        "pad": "(1, 1)"
      }, 
      "inputs": []
    }, 
    {
      "op": "Convolution", 
      "name": "convolution47", 
      "attr": {
        "kernel": "(3, 3)", 
        "num_filter": "384", 
        "pad": "(1, 1)"
      }, 
      "inputs": [[520, 0, 0], [521, 0, 0], [522, 0, 0]]
    }, 
    {
      "op": "Activation", 
      "name": "activation137", 
      "attr": {"act_type": "relu"}, 
      "inputs": [[523, 0, 0]]
    }, 
    {
      "op": "null", 
      "name": "convolution48_weight", 
      "attr": {
        "kernel": "(3, 3)", 
        "num_filter": "384", 
        "pad": "(1, 1)"
      }, 
      "inputs": []
    }, 
    {
      "op": "null", 
      "name": "convolution48_bias", 
      "attr": {
        "kernel": "(3, 3)", 
        "num_filter": "384", 
        "pad": "(1, 1)"
      }, 
      "inputs": []
    }, 
    {
      "op": "Convolution", 
      "name": "convolution48", 
      "attr": {
        "kernel": "(3, 3)", 
        "num_filter": "384", 
        "pad": "(1, 1)"
      }, 
      "inputs": [[524, 0, 0], [525, 0, 0], [526, 0, 0]]
    }, 
    {
      "op": "Activation", 
      "name": "activation138", 
      "attr": {"act_type": "relu"}, 
      "inputs": [[527, 0, 0]]
    }, 
    {
      "op": "null", 
      "name": "convolution49_weight", 
      "attr": {
        "kernel": "(3, 3)", 
        "num_filter": "256", 
        "pad": "(1, 1)"
      }, 
      "inputs": []
    }, 
    {
      "op": "null", 
      "name": "convolution49_bias", 
      "attr": {
        "kernel": "(3, 3)", 
        "num_filter": "256", 
        "pad": "(1, 1)"
      }, 
      "inputs": []
    }, 
    {
      "op": "Convolution", 
      "name": "convolution49", 
      "attr": {
        "kernel": "(3, 3)", 
        "num_filter": "256", 
        "pad": "(1, 1)"
      }, 
      "inputs": [[528, 0, 0], [529, 0, 0], [530, 0, 0]]
    }, 
    {
      "op": "Activation", 
      "name": "activation139", 
      "attr": {"act_type": "relu"}, 
      "inputs": [[531, 0, 0]]
    }, 
    {
      "op": "Pooling", 
      "name": "pooling29", 
      "attr": {
        "kernel": "(3, 3)", 
        "pool_type": "max", 
        "stride": "(2, 2)"
      }, 
      "inputs": [[532, 0, 0]]
    }, 
    {
      "op": "Flatten", 
      "name": "flatten9", 
      "inputs": [[533, 0, 0]]
    }, 
    {
      "op": "null", 
      "name": "fullyconnected9_weight", 
      "attr": {"num_hidden": "4096"}, 
      "inputs": []
    }, 
    {
      "op": "null", 
      "name": "fullyconnected9_bias", 
      "attr": {"num_hidden": "4096"}, 
      "inputs": []
    }, 
    {
      "op": "FullyConnected", 
      "name": "fullyconnected9", 
      "attr": {"num_hidden": "4096"}, 
      "inputs": [[534, 0, 0], [535, 0, 0], [536, 0, 0]]
    }, 
    {
      "op": "FullyConnected", 
      "name": "t9_l0_i2h", 
      "attr": {"num_hidden": "16384"}, 
      "inputs": [[537, 0, 0], [31, 0, 0], [32, 0, 0]]
    }, 
    {
      "op": "FullyConnected", 
      "name": "t9_l0_h2h", 
      "attr": {"num_hidden": "16384"}, 
      "inputs": [[495, 0, 0], [35, 0, 0], [36, 0, 0]]
    }, 
    {
      "op": "elemwise_add", 
      "name": "_plus36", 
      "inputs": [[538, 0, 0], [539, 0, 0]]
    }, 
    {
      "op": "SliceChannel", 
      "name": "t9_l0_slice", 
      "attr": {"num_outputs": "4"}, 
      "inputs": [[540, 0, 0]]
    }, 
    {
      "op": "Activation", 
      "name": "activation143", 
      "attr": {"act_type": "sigmoid"}, 
      "inputs": [[541, 3, 0]]
    }, 
    {
      "op": "Activation", 
      "name": "activation142", 
      "attr": {"act_type": "sigmoid"}, 
      "inputs": [[541, 2, 0]]
    }, 
    {
      "op": "_mul", 
      "name": "_mul54", 
      "inputs": [[543, 0, 0], [493, 0, 0]]
    }, 
    {
      "op": "Activation", 
      "name": "activation140", 
      "attr": {"act_type": "sigmoid"}, 
      "inputs": [[541, 0, 0]]
    }, 
    {
      "op": "Activation", 
      "name": "activation141", 
      "attr": {"act_type": "tanh"}, 
      "inputs": [[541, 1, 0]]
    }, 
    {
      "op": "_mul", 
      "name": "_mul55", 
      "inputs": [[545, 0, 0], [546, 0, 0]]
    }, 
    {
      "op": "elemwise_add", 
      "name": "_plus37", 
      "inputs": [[544, 0, 0], [547, 0, 0]]
    }, 
    {
      "op": "Activation", 
      "name": "activation144", 
      "attr": {"act_type": "tanh"}, 
      "inputs": [[548, 0, 0]]
    }, 
    {
      "op": "_mul", 
      "name": "_mul56", 
      "inputs": [[542, 0, 0], [549, 0, 0]]
    }, 
    {
      "op": "FullyConnected", 
      "name": "t9_l1_i2h", 
      "attr": {"num_hidden": "16384"}, 
      "inputs": [[550, 0, 0], [50, 0, 0], [51, 0, 0]]
    }, 
    {
      "op": "FullyConnected", 
      "name": "t9_l1_h2h", 
      "attr": {"num_hidden": "16384"}, 
      "inputs": [[508, 0, 0], [54, 0, 0], [55, 0, 0]]
    }, 
    {
      "op": "elemwise_add", 
      "name": "_plus38", 
      "inputs": [[551, 0, 0], [552, 0, 0]]
    }, 
    {
      "op": "SliceChannel", 
      "name": "t9_l1_slice", 
      "attr": {"num_outputs": "4"}, 
      "inputs": [[553, 0, 0]]
    }, 
    {
      "op": "Activation", 
      "name": "activation148", 
      "attr": {"act_type": "sigmoid"}, 
      "inputs": [[554, 3, 0]]
    }, 
    {
      "op": "Activation", 
      "name": "activation147", 
      "attr": {"act_type": "sigmoid"}, 
      "inputs": [[554, 2, 0]]
    }, 
    {
      "op": "_mul", 
      "name": "_mul57", 
      "inputs": [[556, 0, 0], [506, 0, 0]]
    }, 
    {
      "op": "Activation", 
      "name": "activation145", 
      "attr": {"act_type": "sigmoid"}, 
      "inputs": [[554, 0, 0]]
    }, 
    {
      "op": "Activation", 
      "name": "activation146", 
      "attr": {"act_type": "tanh"}, 
      "inputs": [[554, 1, 0]]
    }, 
    {
      "op": "_mul", 
      "name": "_mul58", 
      "inputs": [[558, 0, 0], [559, 0, 0]]
    }, 
    {
      "op": "elemwise_add", 
      "name": "_plus39", 
      "inputs": [[557, 0, 0], [560, 0, 0]]
    }, 
    {
      "op": "Activation", 
      "name": "activation149", 
      "attr": {"act_type": "tanh"}, 
      "inputs": [[561, 0, 0]]
    }, 
    {
      "op": "_mul", 
      "name": "_mul59", 
      "inputs": [[555, 0, 0], [562, 0, 0]]
    }, 
    {
      "op": "Concat", 
      "name": "concat0", 
      "attr": {
        "dim": "0", 
        "num_args": "10"
      }, 
      "inputs": [[68, 0, 0], [123, 0, 0], [178, 0, 0], [233, 0, 0], [288, 0, 0], [343, 0, 0], [398, 0, 0], [453, 0, 0], [508, 0, 0], [563, 0, 0]]
    }, 
    {
      "op": "null", 
      "name": "fc_weight", 
      "attr": {"num_hidden": "5"}, 
      "inputs": []
    }, 
    {
      "op": "null", 
      "name": "fc_bias", 
      "attr": {"num_hidden": "5"}, 
      "inputs": []
    }, 
    {
      "op": "FullyConnected", 
      "name": "fc", 
      "attr": {"num_hidden": "5"}, 
      "inputs": [[564, 0, 0], [565, 0, 0], [566, 0, 0]]
    }, 
    {
      "op": "null", 
      "name": "label", 
      "inputs": []
    }, 
    {
      "op": "SliceChannel", 
      "name": "slicechannel1", 
      "attr": {
        "axis": "1", 
        "num_outputs": "10", 
        "squeeze_axis": "True"
      }, 
      "inputs": [[568, 0, 0]]
    }, 
    {
      "op": "Concat", 
      "name": "concat1", 
      "attr": {
        "dim": "0", 
        "num_args": "10"
      }, 
      "inputs": [[569, 0, 0], [569, 1, 0], [569, 2, 0], [569, 3, 0], [569, 4, 0], [569, 5, 0], [569, 6, 0], [569, 7, 0], [569, 8, 0], [569, 9, 0]]
    }, 
    {
      "op": "Reshape", 
      "name": "reshape0", 
      "attr": {"target_shape": "(0,)"}, 
      "inputs": [[570, 0, 0]]
    }, 
    {
      "op": "SoftmaxOutput", 
      "name": "softmax", 
      "inputs": [[567, 0, 0], [571, 0, 0]]
    }
  ], 
  "arg_nodes": [
    0, 
    2, 
    3, 
    8, 
    9, 
    14, 
    15, 
    18, 
    19, 
    22, 
    23, 
    28, 
    29, 
    31, 
    32, 
    34, 
    35, 
    36, 
    42, 
    50, 
    51, 
    53, 
    54, 
    55, 
    61, 
    69, 
    70, 
    75, 
    76, 
    81, 
    82, 
    85, 
    86, 
    89, 
    90, 
    95, 
    96, 
    124, 
    125, 
    130, 
    131, 
    136, 
    137, 
    140, 
    141, 
    144, 
    145, 
    150, 
    151, 
    179, 
    180, 
    185, 
    186, 
    191, 
    192, 
    195, 
    196, 
    199, 
    200, 
    205, 
    206, 
    234, 
    235, 
    240, 
    241, 
    246, 
    247, 
    250, 
    251, 
    254, 
    255, 
    260, 
    261, 
    289, 
    290, 
    295, 
    296, 
    301, 
    302, 
    305, 
    306, 
    309, 
    310, 
    315, 
    316, 
    344, 
    345, 
    350, 
    351, 
    356, 
    357, 
    360, 
    361, 
    364, 
    365, 
    370, 
    371, 
    399, 
    400, 
    405, 
    406, 
    411, 
    412, 
    415, 
    416, 
    419, 
    420, 
    425, 
    426, 
    454, 
    455, 
    460, 
    461, 
    466, 
    467, 
    470, 
    471, 
    474, 
    475, 
    480, 
    481, 
    509, 
    510, 
    515, 
    516, 
    521, 
    522, 
    525, 
    526, 
    529, 
    530, 
    535, 
    536, 
    565, 
    566, 
    568
  ], 
  "node_row_ptr": [
    0, 
    1, 
    11, 
    12, 
    13, 
    14, 
    15, 
    16, 
    18, 
    19, 
    20, 
    21, 
    22, 
    23, 
    25, 
    26, 
    27, 
    28, 
    29, 
    30, 
    31, 
    32, 
    33, 
    34, 
    35, 
    36, 
    37, 
    38, 
    39, 
    40, 
    41, 
    42, 
    43, 
    44, 
    45, 
    46, 
    47, 
    48, 
    49, 
    50, 
    54, 
    55, 
    56, 
    57, 
    58, 
    59, 
    60, 
    61, 
    62, 
    63, 
    64, 
    65, 
    66, 
    67, 
    68, 
    69, 
    70, 
    71, 
    72, 
    76, 
    77, 
    78, 
    79, 
    80, 
    81, 
    82, 
    83, 
    84, 
    85, 
    86, 
    87, 
    88, 
    89, 
    90, 
    91, 
    93, 
    94, 
    95, 
    96, 
    97, 
    98, 
    100, 
    101, 
    102, 
    103, 
    104, 
    105, 
    106, 
    107, 
    108, 
    109, 
    110, 
    111, 
    112, 
    113, 
    114, 
    115, 
    116, 
    117, 
    118, 
    119, 
    120, 
    124, 
    125, 
    126, 
    127, 
    128, 
    129, 
    130, 
    131, 
    132, 
    133, 
    134, 
    135, 
    136, 
    140, 
    141, 
    142, 
    143, 
    144, 
    145, 
    146, 
    147, 
    148, 
    149, 
    150, 
    151, 
    152, 
    153, 
    154, 
    156, 
    157, 
    158, 
    159, 
    160, 
    161, 
    163, 
    164, 
    165, 
    166, 
    167, 
    168, 
    169, 
    170, 
    171, 
    172, 
    173, 
    174, 
    175, 
    176, 
    177, 
    178, 
    179, 
    180, 
    181, 
    182, 
    183, 
    187, 
    188, 
    189, 
    190, 
    191, 
    192, 
    193, 
    194, 
    195, 
    196, 
    197, 
    198, 
    199, 
    203, 
    204, 
    205, 
    206, 
    207, 
    208, 
    209, 
    210, 
    211, 
    212, 
    213, 
    214, 
    215, 
    216, 
    217, 
    219, 
    220, 
    221, 
    222, 
    223, 
    224, 
    226, 
    227, 
    228, 
    229, 
    230, 
    231, 
    232, 
    233, 
    234, 
    235, 
    236, 
    237, 
    238, 
    239, 
    240, 
    241, 
    242, 
    243, 
    244, 
    245, 
    246, 
    250, 
    251, 
    252, 
    253, 
    254, 
    255, 
    256, 
    257, 
    258, 
    259, 
    260, 
    261, 
    262, 
    266, 
    267, 
    268, 
    269, 
    270, 
    271, 
    272, 
    273, 
    274, 
    275, 
    276, 
    277, 
    278, 
    279, 
    280, 
    282, 
    283, 
    284, 
    285, 
    286, 
    287, 
    289, 
    290, 
    291, 
    292, 
    293, 
    294, 
    295, 
    296, 
    297, 
    298, 
    299, 
    300, 
    301, 
    302, 
    303, 
    304, 
    305, 
    306, 
    307, 
    308, 
    309, 
    313, 
    314, 
    315, 
    316, 
    317, 
    318, 
    319, 
    320, 
    321, 
    322, 
    323, 
    324, 
    325, 
    329, 
    330, 
    331, 
    332, 
    333, 
    334, 
    335, 
    336, 
    337, 
    338, 
    339, 
    340, 
    341, 
    342, 
    343, 
    345, 
    346, 
    347, 
    348, 
    349, 
    350, 
    352, 
    353, 
    354, 
    355, 
    356, 
    357, 
    358, 
    359, 
    360, 
    361, 
    362, 
    363, 
    364, 
    365, 
    366, 
    367, 
    368, 
    369, 
    370, 
    371, 
    372, 
    376, 
    377, 
    378, 
    379, 
    380, 
    381, 
    382, 
    383, 
    384, 
    385, 
    386, 
    387, 
    388, 
    392, 
    393, 
    394, 
    395, 
    396, 
    397, 
    398, 
    399, 
    400, 
    401, 
    402, 
    403, 
    404, 
    405, 
    406, 
    408, 
    409, 
    410, 
    411, 
    412, 
    413, 
    415, 
    416, 
    417, 
    418, 
    419, 
    420, 
    421, 
    422, 
    423, 
    424, 
    425, 
    426, 
    427, 
    428, 
    429, 
    430, 
    431, 
    432, 
    433, 
    434, 
    435, 
    439, 
    440, 
    441, 
    442, 
    443, 
    444, 
    445, 
    446, 
    447, 
    448, 
    449, 
    450, 
    451, 
    455, 
    456, 
    457, 
    458, 
    459, 
    460, 
    461, 
    462, 
    463, 
    464, 
    465, 
    466, 
    467, 
    468, 
    469, 
    471, 
    472, 
    473, 
    474, 
    475, 
    476, 
    478, 
    479, 
    480, 
    481, 
    482, 
    483, 
    484, 
    485, 
    486, 
    487, 
    488, 
    489, 
    490, 
    491, 
    492, 
    493, 
    494, 
    495, 
    496, 
    497, 
    498, 
    502, 
    503, 
    504, 
    505, 
    506, 
    507, 
    508, 
    509, 
    510, 
    511, 
    512, 
    513, 
    514, 
    518, 
    519, 
    520, 
    521, 
    522, 
    523, 
    524, 
    525, 
    526, 
    527, 
    528, 
    529, 
    530, 
    531, 
    532, 
    534, 
    535, 
    536, 
    537, 
    538, 
    539, 
    541, 
    542, 
    543, 
    544, 
    545, 
    546, 
    547, 
    548, 
    549, 
    550, 
    551, 
    552, 
    553, 
    554, 
    555, 
    556, 
    557, 
    558, 
    559, 
    560, 
    561, 
    565, 
    566, 
    567, 
    568, 
    569, 
    570, 
    571, 
    572, 
    573, 
    574, 
    575, 
    576, 
    577, 
    581, 
    582, 
    583, 
    584, 
    585, 
    586, 
    587, 
    588, 
    589, 
    590, 
    591, 
    592, 
    593, 
    594, 
    595, 
    597, 
    598, 
    599, 
    600, 
    601, 
    602, 
    604, 
    605, 
    606, 
    607, 
    608, 
    609, 
    610, 
    611, 
    612, 
    613, 
    614, 
    615, 
    616, 
    617, 
    618, 
    619, 
    620, 
    621, 
    622, 
    623, 
    624, 
    628, 
    629, 
    630, 
    631, 
    632, 
    633, 
    634, 
    635, 
    636, 
    637, 
    638, 
    639, 
    640, 
    644, 
    645, 
    646, 
    647, 
    648, 
    649, 
    650, 
    651, 
    652, 
    653, 
    654, 
    655, 
    656, 
    657, 
    658, 
    668, 
    669, 
    670, 
    671
  ], 
  "heads": [[572, 0, 0]], 
  "attrs": {"mxnet_version": ["int", 901]}
}